models/layout_parts_model_34.2.pth (torch_old, 980122 bytes, 20 tensors)

weight f4 [3, 6, 5, 5]
0	0x3ca6b48b	0.020349761
1	0x3d372f5a	0.044722892
2	0xbcbf204c	-0.02333083
3	0xbd131102	-0.03590489
4	0x3d214a7a	0.039377667
5	0x3ca9dba9	0.020734625
6	0x3db27792	0.087142125
7	0xbce8d9c6	-0.028424155
8	0xbd3a0696	-0.045416437
9	0x3d292ecb	0.04130439
10	0x3ced4bde	0.02896684
11	0x3bc1550d	0.0059000314
12	0xbd95a06b	-0.07305988
13	0x3d95c385	0.07312683
14	0xbcd4966b	-0.025950631
15	0x3ca8d945	0.020611415
16	0xbcf6e506	-0.030138504
17	0xbd10b107	-0.035325076
18	0xbc99459b	-0.018709948
19	0x3d0bbc3c	0.03411506
20	0x3c162f8b	0.009166609
21	0xbd8832c7	-0.0665031
22	0xbc9b6613	-0.018969571
23	0xbd35129a	-0.044207193
24	0x3cd189a3	0.025578326
25	0xbc4b4526	-0.012406623
26	0x3cfa791d	0.03057533
27	0xbb9053c1	-0.0044045155
28	0xbc4849f0	-0.012224659
29	0xbd4b5c5f	-0.04964864
30	0x3d7d75e2	0.06188
31	0xbda3681c	-0.07978842
32	0xbd7f8f82	-0.06239272
33	0x3d5a2d61	0.053265933
34	0xbb47d440	-0.00304915
35	0x3c8af97c	0.016964667
36	0x3d56b6f8	0.052420586
37	0x3d76e09b	0.060272794
38	0x3ce529d7	0.027974052
39	0x3d392f69	0.04521123
40	0xbdb163ec	-0.08661637
41	0x3c95ff38	0.018310174
42	0xbd09e01f	-0.033661004
43	0x3c95981a	0.018261004
44	0xbc28a096	-0.010292193
45	0x3d937a92	0.07201113
46	0x3ad462ae	0.0016203725
47	0xbd0a8b67	-0.03382435
48	0xbcc695f0	-0.024241418
49	0xbcb3ca34	-0.021947004
50	0xbd33b643	-0.04387499
51	0x3cbbf5b9	0.022944318
52	0x3d5092fc	0.050921425
53	0xbb9c083b	-0.0047617233
54	0x3d9bd232	0.07608451
55	0x3bee15c0	0.0072657764
56	0xbcc4efe0	-0.024040163
57	0xbd8c02ad	-0.06836448
58	0x3d9c6980	0.0763731
59	0x3c92600b	0.017868062
60	0xbd38d821	-0.04512799
61	0x3c4c9845	0.012487476
62	0x3c02d2e0	0.007984847
63	0x3c9bd1f8	0.01902102
64	0xbd27de42	-0.040983446
65	0xbb059d9f	-0.002038814
66	0x39553da8	0.00020336232
67	0x3c9a9652	0.018870506
68	0x3a5d7bbf	0.00084489206
69	0x3b8ad626	0.0042369543
70	0xbd217603	-0.039419185
71	0xbcd141a2	-0.025543991
72	0x3cd68dcb	0.026190659
73	0xbd49f9d1	-0.04931051
74	0x3d2e78c4	0.04259564
75	0x3bd5a095	0.006519387
76	0x3c1b26b4	0.009469677
77	0x3cbd76be	0.02312791
78	0xbd72c2b1	-0.059267703
79	0x3d8cc0f7	0.068727426
80	0x3c787915	0.015165587
81	0xbd8d1a87	-0.06889825
82	0xbce43428	-0.027856901
83	0x3c92a7d6	0.017902296
84	0x3d7c7c5d	0.06164204
85	0x3d019754	0.03163846
86	0xbb40c92d	-0.0029416785
87	0x3d90b24e	0.07065259
88	0xbd86c0a1	-0.0657971
89	0xbc77cc68	-0.015124418
90	0x3d740802	0.05957795
91	0xbd6c7eed	-0.057738233
92	0x3d377d2f	0.04479712
93	0xbd83ab44	-0.06429151
94	0xbb96a5a3	-0.004597382
95	0x3cc6aafe	0.024251457
96	0x3be55ebf	0.00699982
97	0x3d8392aa	0.06424458
98	0x3d82e434	0.063911825
99	0xbcadb895	-0.02120618
100	0xbd3308d0	-0.043709576
101	0xbd61f11b	-0.055161577
102	0xbb9210c9	-0.0044575674
103	0x3d5596c5	0.05214574
104	0xbc7da3a1	-0.015480907
105	0x3d93e009	0.07220466
106	0xbc59c558	-0.013291679
107	0x3cb28315	0.02179102
108	0xbcbee714	-0.023303546
109	0x3d4305be	0.047612898
110	0xbd05df94	-0.032683924
111	0xbd8f8c2f	-0.0700916
112	0xbd02c6d9	-0.031927917
113	0xbd8415b9	-0.06449456
114	0x3d967754	0.07346979
115	0xbd355e06	-0.04427912
116	0xbbd8f8fb	-0.0066214777
117	0x3b1c1086	0.002381356
118	0x3cd814f6	0.026377182
119	0x3d725b01	0.05916882
120	0x3ba394a5	0.004992085
121	0xbb9fdbe8	-0.00487851
122	0x3c70ffd0	0.014709428
123	0x3d68855b	0.056767803
124	0xbca61f69	-0.02027865
125	0x3d65b745	0.056082983
126	0xbd0fe108	-0.035126716
127	0x3d30b3ce	0.043140225
128	0x3ce83ea4	0.028350182
129	0xbc986a21	-0.018605294
130	0xbcb5ee37	-0.022208316
131	0x3d4cfe89	0.05004743
132	0x3d8a031c	0.06738874
133	0xbd072ea9	-0.033003483
134	0x3d5091af	0.050920185
135	0xbd69126d	-0.056902338
136	0xbc04f05f	-0.00811395
137	0x3d8f0cb0	0.06984842
138	0x3d8a4c26	0.067528054
139	0x3d033b1a	0.032038786
140	0x3d051b2b	0.032496613
141	0x3d906a79	0.07051558
142	0xbd120e9e	-0.03565847
143	0x3da4c701	0.080457695
144	0x3d7e9430	0.06215304
145	0x3c0c4523	0.008561405
146	0xbd90bc69	-0.070671864
147	0xbd9b20a1	-0.07574583
148	0xbd9b691f	-0.0758841
149	0x3c9035aa	0.017603714
150	0xbd5fff66	-0.054686926
151	0x3d7ac2e6	0.061221026
152	0x3d09657c	0.03354405
153	0x3d7fbb91	0.062434737
154	0xbc8c5b00	-0.017133236
155	0x3c18b7ba	0.009321148
156	0x3d1b4d53	0.03791554
157	0xbcd75dbc	-0.026289813
158	0xbd8e6d68	-0.06954461
159	0xbcf55dc4	-0.029951937
160	0x3d6820bc	0.056671843
161	0xbd0d634e	-0.034518532
162	0x3cb8d9b4	0.022564746
163	0x3d4a7a2d	0.049432922
164	0x3d1a90b3	0.037735652
165	0xbd73c556	-0.059514366
166	0x3aa3c9b1	0.0012496022
167	0xbd8c5f0d	-0.06854067
168	0x3cf0ce35	0.029395202
169	0x3d01aae9	0.031657133
170	0x3c5dfb62	0.013548704
171	0x3d312174	0.043244794
172	0xbcd339a9	-0.02578433
173	0x3d6527ce	0.055946164
174	0xbd1f85c3	-0.038945924
175	0xbc139ab4	-0.009009052
176	0x3c12f8f6	0.00897049
177	0x3d2b76c0	0.041861296
178	0x3d0f46e5	0.03497972
179	0xbcc71580	-0.024302244
180	0x3c668a66	0.014071083
181	0x3bf4946b	0.007463982
182	0xbd360154	-0.04443486
183	0x3d56cc83	0.05244113
184	0x3c1aa7b0	0.009439394
185	0xbc5137c2	-0.012769641
186	0x3ca3183b	0.019909015
187	0xbd00493e	-0.03131985
188	0xbccf03fa	-0.02527045
189	0x3be1ba9d	0.006888701
190	0xbd7fc9d2	-0.06244833
191	0xbd853953	-0.06505074
192	0xbd9b50ab	-0.075837456
193	0x3d1db263	0.0385002
194	0x3b8ca260	0.0042918175
195	0xbd39ad1a	-0.0453311
196	0xbc509173	-0.01272999
197	0x3d49fa56	0.049311005
198	0x39828564	0.00024894916
199	0xbd8e2d3d	-0.06942222
200	0xbcfbe7e3	-0.03075022
201	0xbc371f4c	-0.011176895
202	0xbcde145e	-0.027109321
203	0x3d673f05	0.056456584
204	0xbd60f51a	-0.054921247
205	0xbd6e1e4e	-0.05813437
206	0x3d8f840d	0.070076086
207	0xbcceaa54	-0.025227703
208	0xbd683be5	-0.056697745
209	0xbce545b2	-0.027987335
210	0x3cf8f11b	0.030388406
211	0xbd3f2cea	-0.046673693
212	0x3d96a67b	0.073559724
213	0xbd102041	-0.03518701
214	0xbd89a83e	-0.06721543
215	0xbc1c0aee	-0.00952409
216	0xbcae4eb9	-0.021277772
217	0x3b919732	0.0044430727
218	0xbd0e1c86	-0.03469517
219	0x3d8bb146	0.068209216
220	0x3d3e7e00	0.04650688
221	0xbbefd491	-0.007319041
222	0x3c1101e7	0.008850551
223	0x3d7aba90	0.061213076
224	0x3d083cc1	0.033261064
225	0x3c5ea92c	0.013590138
226	0x3a1f20c1	0.00060702494
227	0xbd0b3ddf	-0.03399455
228	0x3d456bc1	0.048198465
229	0xbc7c9de7	-0.015418506
230	0xbb8e8461	-0.004349277
231	0x3cb837a0	0.022487462
232	0xbce7cbf2	-0.02829549
233	0x3d9f53cb	0.07779654
234	0x3cfe8bfc	0.03107261
235	0xbcfe94cd	-0.031076813
236	0x3d387045	0.045028944
237	0x3d42e18f	0.04757839
238	0xbbaac3c5	-0.005211326
239	0x3c7ab6a4	0.015302334
240	0xbb81ff98	-0.0039672367
241	0xbbd7994c	-0.0065795537
242	0xbd8108e2	-0.063005224
243	0xbd4cb856	-0.049980484
244	0xbd6ba123	-0.05752672
245	0x3ca3b96e	0.01998588
246	0x3d44993d	0.047997702
247	0x3d0f3050	0.034958184
248	0xbce6b5a7	-0.02816279
249	0x3d598b72	0.0531115
250	0x3d933475	0.0718774
251	0xbca2cf31	-0.019874187
252	0xbc3e8124	-0.011627469
253	0x3bbe6ba1	0.00581117
254	0x3d76712a	0.060166515
255	0xbcf50ba3	-0.029912775

bias f4 [6]
0	0xbcddbc4a	-0.027067322
1	0x3be34c61	0.0069365953
2	0x3d93bcd1	0.07213748
3	0x3c76e7a0	0.015069872
4	0x3d889787	0.066695265
5	0xbd8aed8e	-0.06783591

weight f4 [6, 16, 5, 5]
0	0x3d21eaad	0.039530445
1	0xbce24da4	-0.027624913
2	0x3aa43c44	0.0012530168
3	0x3ba90499	0.005158019
4	0x3c271903	0.010198834
5	0xbb9a2f69	-0.0047053588
6	0xbc5cb0fb	-0.01346993
7	0xbc740404	-0.0148935355
8	0xbcda9d71	-0.026686402
9	0x3c92f20b	0.01793768
10	0x3a585534	0.00082524423
11	0x3cf34e17	0.029700322
12	0x3bf5dbec	0.0075030234
13	0x3c66f72a	0.014097014
14	0xbb0a7979	-0.0021129532
15	0xbbb6d339	-0.005579379
16	0xbcc6deaa	-0.024276096
17	0xbd04af03	-0.032393467
18	0x3d21db50	0.039515793
19	0x3bb95b64	0.0056566466
20	0xbcde697a	-0.027149905
21	0x3d5772ee	0.05259984
22	0x3b51a3b3	0.0031988441
23	0xbd419471	-0.047260705
24	0xbc851d32	-0.016249273
25	0xbd2931f7	-0.041307416
26	0xbcbc1680	-0.022959948
27	0xbbd86597	-0.0066039073
28	0x3a04a0fd	0.00050593895
29	0x3c83120a	0.015999813
30	0x3d053a2f	0.03252619
31	0xbd60c3a2	-0.05487407
32	0x3cb930b0	0.022606224
33	0x3d082e8f	0.033247527
34	0xbb816a27	-0.003949422
35	0xbcaacda5	-0.020850012
36	0xbc9dea37	-0.019276721
37	0x3bc3c235	0.005974079
38	0xbcf3da53	-0.029767191
39	0x3cefbd5e	0.029265102
40	0xbc750253	-0.014954167
41	0xbd1e36e9	-0.038626585
42	0x3ce38572	0.027773593
43	0x3c25ed6f	0.010127409
44	0xbd14fd86	-0.03637459
45	0xbd2b35b9	-0.04179928
46	0x3d0cc00f	0.03436285
47	0xbc213149	-0.009838411
48	0x3cc92232	0.024552438
49	0xbca5c0c7	-0.020233525
50	0xbda383e7	-0.07984143
51	0xbc89f1b9	-0.016838895
52	0x3d3e3aa6	0.04644265
53	0xbd13e267	-0.036104586
54	0xbc951b53	-0.018201506
55	0x3ce9390b	0.028469583
56	0x3bd78935	0.0065776356
57	0x3d9b302a	0.07577546
58	0x3d80e023	0.06292751
59	0x3ccd2ba8	0.025045231
60	0xbccb94c9	-0.02485122
61	0x3d7603cf	0.060062226
62	0x3daec097	0.08532827
63	0x3d379c89	0.044827018
64	0x3ce785f4	0.028262116
65	0x3bd8a365	0.006611275
66	0x3d86d386	0.06583314
67	0xbca6b8a4	-0.020351715
68	0xbbc1cd4f	-0.0059143673
69	0xbb45108b	-0.0030069675
70	0xbd124af5	-0.035716016
71	0xbc1db41f	-0.009625464
72	0xbd2fe3cb	-0.04294185
73	0xbd482683	-0.048864853
74	0xbd06008a	-0.032715358
75	0xba67f9df	-0.00088491844
76	0xbba74b13	-0.005105385
77	0x3c440bd4	0.011965711
78	0xbd70a842	-0.058754213
79	0xbd151ab4	-0.03640242
80	0xbc919aa0	-0.017773926
81	0xbd3913b9	-0.045184825
82	0xbce83609	-0.028346078
83	0xbc9038c8	-0.0176052
84	0xbc4cd870	-0.012502775
85	0x3bcdb148	0.006277237
86	0xbc25bffa	-0.010116572
87	0x3ba06eeb	0.004896035
88	0xbc0c9ebf	-0.00858277
89	0x3b896196	0.0041925414
90	0xbd2b905a	-0.04188571
91	0xbd011bb4	-0.03152056
92	0xbd54f462	-0.051990874
93	0xbcf052a3	-0.02933628
94	0xbb423d08	-0.0029638428
95	0x3c9d3a31	0.019192787
96	0xbd66d293	-0.056353163
97	0x3c3b0358	0.011414371
98	0xbd01232b	-0.03152768
99	0xbcbaef2e	-0.022819128
100	0xbc6b7d8b	-0.0143731935
101	0xbd326f39	-0.0435631
102	0x3b13e2d5	0.0022565622
103	0x3d3a1962	0.045434363
104	0xbd1f2f83	-0.03886367
105	0x3d04a455	0.03238328
106	0xbb6c1721	-0.0036024528
107	0xbc8f0d15	-0.017462293
108	0x3bdb4799	0.0066918847
109	0xbcf4a039	-0.029861556
110	0x3af77847	0.001888045
111	0x3c70805c	0.014679041
112	0x3bfc4421	0.0076985513
113	0x3d3d6c15	0.046245653
114	0x3d29bfd3	0.041442703
115	0x3c1a61e5	0.009422754
116	0xbce3ac9f	-0.027792273
117	0xbc0ef0c1	-0.008724392
118	0x3c90cbcd	0.017675305
119	0x3bcc944a	0.0062432634
120	0xbcc9c1bf	-0.024628518
121	0x3ce9f577	0.02855943
122	0xb9c12633	-0.0003684029
123	0x3a997ec2	0.001171075
124	0xbd0efcc2	-0.034909017
125	0xbd2c943b	-0.04213355
126	0x3d5eea78	0.054422826
127	0x3d378185	0.044801254
128	0xbcad9d9f	-0.021193324
129	0x3d328b17	0.043589678
130	0x3cfef235	0.031121353
131	0xbc8301a2	-0.01599199
132	0xbbbf1007	-0.005830768
133	0xbcae6398	-0.021287724
134	0x3d5dd2d3	0.054156136
135	0x3cf00d6d	0.029303277
136	0xbb50bfcf	-0.0031852608
137	0x3cbb6f39	0.022880184
138	0xbd00792d	-0.031365562
139	0xbc8deac3	-0.017323857
140	0x3ab17184	0.0013537859
141	0xbc14501a	-0.009052301
142	0x3b1c50dd	0.002385191
143	0x3c042c3e	0.008067189
144	0x3cd48997	0.025944514
145	0x3ccd67a1	0.025073828
146	0xbd188cb0	-0.037243545
147	0x3c2cdb78	0.010550372
148	0xbd4a3509	-0.049366985
149	0xbc5d737a	-0.013516301
150	0x3d0487f6	0.032356225
151	0x3be26e71	0.0069101383
152	0xbba321c5	-0.004978391
153	0xbbf6c242	-0.0075304816
154	0xbcd187cf	-0.025577454
155	0xbd025d70	-0.03182739
156	0x3c3cadc0	0.011516035
157	0x3ba61732	0.005068683
158	0x3ccce899	0.025013255
159	0x3bb04920	0.005379811
160	0xbc0edf6e	-0.008720262
161	0x3c733bc9	0.014845797
162	0xbafaf288	-0.0019145766
163	0x3cce75af	0.0252026
164	0x3cff7875	0.031185368
165	0xbbfb7e65	-0.0076749795
166	0x3d1d4c71	0.03840298
167	0xbd07e197	-0.033174124
168	0x3b2bf6ee	0.002623971
169	0x399e3780	0.0003017746
170	0xbcc156d7	-0.023600979
171	0x3b0e33a5	0.0021698263
172	0x3d076844	0.03305842
173	0xbd2fcb54	-0.04291852
174	0x3cd21aea	0.0256476
175	0xbba23a28	-0.0049507804
176	0x3ca90f29	0.020637112
177	0xbb447982	-0.002997965
178	0x3d238897	0.039925184
179	0x3d314a42	0.04328371
180	0x3c038f3d	0.008029756
181	0x3cc03ee3	0.023467487
182	0x3cac66b4	0.021045066
183	0xbcd370a3	-0.025810545
184	0x3c38418e	0.011246098
185	0x3b2aec67	0.0026080848
186	0x3d472021	0.048614625
187	0x3d71e75e	0.05905854
188	0x3d009634	0.031393245
189	0xbbf6ad26	-0.007527965
190	0x3c7b0935	0.015322019
191	0xbc58919d	-0.013218311
192	0xbd08178b	-0.033225577
193	0xbc0aa940	-0.008463204
194	0xbc8995b4	-0.016795017
195	0x3c6870c9	0.014187046
196	0x3b36a351	0.002786834
197	0xbccd766c	-0.025080882
198	0xbd26994b	-0.040673535
199	0x3ba0dda0	0.0049092323
200	0x3cbd9e2d	0.023146713
201	0x3c8bcdaa	0.017065842
202	0xbc6e89bc	-0.014559206
203	0xbd01fc73	-0.031734895
204	0xbca63e50	-0.020293385
205	0x3a21f723	0.0006178489
206	0x3cc5534c	0.02408757
207	0x3c650924	0.01397923
208	0x3bcc11eb	0.006227722
209	0x3c6ac4e5	0.01432917
210	0x3c638ab2	0.013888048
211	0xbd355d4c	-0.044278428
212	0x3cbb5e1d	0.022872025
213	0xbd0b0241	-0.033937696
214	0xbd32f6e7	-0.043692496
215	0x3cbef9c3	0.023312455
216	0xbd81c91f	-0.06337189
217	0x3b3678bc	0.002784296
218	0xbcddeb89	-0.027089851
219	0x3a862e08	0.0010237107
220	0x3c256b6a	0.01009641
221	0xbd3eb17f	-0.046555992
222	0xbbe89038	-0.0070972703
223	0x3cd4c4a3	0.02597267
224	0x3c626517	0.013818047
225	0xbd10c153	-0.03534062
226	0xbc687d6b	-0.014190058
227	0x3b2d8bdf	0.0026481075
228	0x3cde80d3	0.027161038
229	0xbc0221b4	-0.007942606
230	0x3c8bc64f	0.017062334
231	0x3c42d4ab	0.011891524
232	0xbbb40bea	-0.0054945843
233	0xbcc297a1	-0.023753943
234	0xbc88caaa	-0.0166982
235	0x39aa4a0c	0.00032480096
236	0x3cd65160	0.02616185
237	0x3cc9ff2f	0.024657814
238	0x3adc0ef9	0.001678913
239	0xbb0a7785	-0.0021128368
240	0x3cd80f09	0.026374357
241	0xbca4f68b	-0.020137092
242	0xbc6592b6	-0.014012029
243	0x3c8b32d5	0.016992012
244	0xbccc6910	-0.024952441
245	0x3c8f4654	0.01748959
246	0xbb9f62d5	-0.0048640766
247	0x3b239bff	0.0024964807
248	0xbc34c50c	-0.011033308
249	0x3ccda100	0.025101185
250	0xbc875732	-0.01652107
251	0x3d274767	0.04083958
252	0x3d28c365	0.041201968
253	0x3c8836e6	0.01662774
254	0x3b842bd2	0.004033544
255	0x3d0761d0	0.033052266

bias f4 [16]
0	0xbd01593e	-0.03157925
1	0x3c2915e5	0.0103201615
2	0xbc80f4f6	-0.015741806
3	0xba426fb3	-0.0007417157
4	0x3caa7fc1	0.020812871
5	0xbd23915c	-0.039933547
6	0xbd18a287	-0.037264373
7	0xbb2f73a4	-0.0026771808
8	0x3d46479f	0.048408147
9	0xbb431c55	-0.0029771526
10	0x3d24763a	0.040151812
11	0x3b4b48c8	0.0031018723
12	0x3bd6875c	0.006546898
13	0x3d2a6b43	0.0416062
14	0x3ce2451c	0.027620845
15	0x3cea0f5b	0.028571775

weight f4 [16, 25, 5, 5]
0	0xbc81d0d7	-0.015846653
1	0x3bea93a6	0.0071587143
2	0x3cf7273b	0.030170074
3	0xbd126310	-0.035739005
4	0x3ccb5b90	0.024823934
5	0x3ae6fadc	0.0017622369
6	0xbcca35df	-0.02468389
7	0xbb0a75f2	-0.002112743
8	0xbc890e10	-0.016730338
9	0x3c443675	0.011975874
10	0xbd113e4d	-0.035459805
11	0xbc3d16e3	-0.011541101
12	0x3c56e6d3	0.013116556
13	0xbd1afb33	-0.03783722
14	0x3c844a3d	0.01614868
15	0xbbd9d627	-0.0066478434
16	0xbcb1b071	-0.02169058
17	0xbcbbab44	-0.022908814
18	0xbca0edb4	-0.019644596
19	0x3c162bb1	0.00916569
20	0x3cb8be1a	0.022551585
21	0xbbe34859	-0.0069361147
22	0xbd0a8aec	-0.033823892
23	0x3cb64179	0.022248017
24	0xbc5f2000	-0.013618469
25	0xbb48dd05	-0.0030649316
26	0xbc7cba7f	-0.0154253235
27	0x3bb0e56f	0.0053984444
28	0xbc00f717	-0.007871411
29	0x3c7da31b	0.015480782
30	0x3ccbc8a2	0.024875943
31	0x3c134952	0.008989649
32	0x3ba67379	0.0050796834
33	0x3ca048e2	0.019566003
34	0x3bb492b8	0.0055106543
35	0x3cbafde4	0.022826143
36	0xbca7f240	-0.020501256
37	0xbc9eabf9	-0.019369112
38	0x3c03224e	0.008003784
39	0xbc664272	-0.014053928
40	0x3d021fe2	0.031768687
41	0xbc1155d3	-0.00887056
42	0x3cd5b6ea	0.026088197
43	0xbccf241c	-0.025285773
44	0x3cbbe68c	0.022937082
45	0x3c9a4cd4	0.018835463
46	0x3c82bdd9	0.015959667
47	0xbcec0c14	-0.028814353
48	0xbbb0493e	-0.005379825
49	0x3c3a88d1	0.011385159
50	0x3cfcf5d2	0.030878935
51	0x3cb4a573	0.022051549
52	0xbc845c0f	-0.016157178
53	0x3c791a01	0.015203954
54	0xbc4bd5b7	-0.01244109
55	0x399893cf	0.00029101825
56	0x3bd9b4bd	0.00664386
57	0x3c48d45e	0.0122576635
58	0xbcd6d72f	-0.026225654
59	0x3cdfa2f6	0.027299386
60	0xbcf06485	-0.029344806
61	0x3c55d49e	0.01305118
62	0xbcbc86e0	-0.023013532
63	0xbc5c96a8	-0.013463654
64	0x3ccb80cd	0.02484169
65	0x3b8d4997	0.004311751
66	0x3ba01b93	0.0048860996
67	0x3cc3e73a	0.023913968
68	0xbc686cd3	-0.014186102
69	0x3c22c5bf	0.009934842
70	0xbc840e0e	-0.016119983
71	0x3c2ed646	0.010671204
72	0xbcd2b9bc	-0.02572333
73	0xbcde0a8a	-0.027104635
74	0x3c95170e	0.01819947
75	0x3c45adc1	0.012065352
76	0xbc134a3d	-0.008989868
77	0xbcdd9454	-0.027048267
78	0x3bc2bcbd	0.0059429095
79	0x3b4d777d	0.0031351738
80	0x3c163390	0.009167567
81	0x3c926ba1	0.017873587
82	0xbd0ae5d0	-0.033910573
83	0xbcc13996	-0.02358703
84	0xbcbf8f99	-0.023383902
85	0xbd146f06	-0.036238693
86	0xbc489ec9	-0.012244889
87	0xbcaf6bca	-0.021413703
88	0xbbf3a76d	-0.00743573
89	0xbb885db7	-0.0041615623
90	0x3c1baded	0.009501916
91	0x3c9f2ca3	0.019430464
92	0x3aa66df3	0.0012697562
93	0x3c91a63b	0.01777946
94	0x3c8516bf	0.016246198
95	0xbc2b2abf	-0.010447203
96	0xbc805f89	-0.015670555
97	0xbc251658	-0.010076128
98	0x3c3ded0f	0.011592164
99	0x3c6487e1	0.013948412
100	0x3c323f69	0.010879376
101	0x3a783fcf	0.00094699574
102	0x3ce80f95	0.028327743
103	0xbc8e243a	-0.017351259
104	0x39e23f25	0.00043153125
105	0x3c95cae9	0.018285232
106	0x3d07d961	0.033166293
107	0x3c02c74c	0.007982086
108	0x3bed7338	0.007246401
109	0xbc579ea8	-0.013160385
110	0xbbe29576	-0.00691479
111	0xbcb224f4	-0.021746136
112	0x3d0b4f59	0.03401122
113	0x3cbef636	0.023310762
114	0xbc7699fe	-0.015051363
115	0x3c1def76	0.0096396115
116	0x3d11b649	0.03557423
117	0xbcc17289	-0.023614185
118	0xbc894251	-0.016755255
119	0x3cf1c844	0.02951444
120	0x3cb01d12	0.021498237
121	0xbc8a4100	-0.016876698
122	0x3d0be9fa	0.034158684
123	0xbc7cecee	-0.015437348
124	0xbc248f66	-0.0100439545
125	0xbcc4411b	-0.023956826
126	0xbca1d7a4	-0.019756146
127	0xbcba8d9f	-0.022772608
128	0xbc13a280	-0.009010911
129	0xbb3abf83	-0.0028495498
130	0xbc5e56ff	-0.013570546
131	0xbd1c2ae5	-0.038126845
132	0xbcd29b8f	-0.025708942
133	0xbc211986	-0.009832745
134	0x3c54a116	0.012977859
135	0xbc28a612	-0.0102935005
136	0xbd05e833	-0.032692146
137	0xbbcc902d	-0.006242773
138	0xbbf491c1	-0.0074636643
139	0x39d03419	0.00039711667
140	0x3c99f17a	0.018791903
141	0x3c08c18a	0.008346925
142	0xbc39d487	-0.011342174
143	0x3c573797	0.013135812
144	0x3cc3d4c8	0.023905173
145	0x3d35c425	0.04437651
146	0x3cc7313a	0.024315465
147	0xbbf5cc78	-0.007501181
148	0x3c838a49	0.01605715
149	0x3ce89fb4	0.028396465
150	0xbc370695	-0.011171003
151	0x3ce768a1	0.028248133
152	0x3c8d52af	0.01725134
153	0xbceb0dab	-0.02869304
154	0x3c419013	0.011814135
155	0xbc254955	-0.0100882845
156	0x3cd0f1dd	0.025505954
157	0xba108e6a	-0.00055143854
158	0x3c8f68aa	0.017505962
159	0x3cde4107	0.027130617
160	0x3b24b1ec	0.0025130464
161	0x3c4df5b1	0.012570784
162	0xbbc5d38c	-0.0060371812
163	0x3cd5a8fe	0.026081558
164	0xbb7d8da8	-0.003868917
165	0xbc2b2398	-0.010445498
166	0x3c54a0cc	0.01297779
167	0x3b993188	0.004675094
168	0x3b607672	0.0034250286
169	0xbb5bda3c	-0.0033546826
170	0xbccfb895	-0.02535657
171	0xbd07e68b	-0.033178847
172	0xbd057cbe	-0.032589667
173	0xbd02e3dd	-0.03195559
174	0x3cca133d	0.024667377
175	0xba0422d3	-0.00050405896
176	0x3c9d91ef	0.019234626
177	0x3c24cfd1	0.010059313
178	0xbd088855	-0.03333314
179	0xbc0d972e	-0.008642001
180	0xbc0de9f4	-0.008661736
181	0x3c3522a4	0.011055622
182	0x3c2c4fc5	0.010517065
183	0xbd281db0	-0.041043937
184	0xbcec31e5	-0.028832385
185	0x3c8bb334	0.017053224
186	0xbc9ebde1	-0.01937765
187	0xbd20f9ba	-0.039300658
188	0x3c817474	0.0158026
189	0xbbdd6e21	-0.006757513
190	0xbc2a9d3d	-0.010413465
191	0xbcf72557	-0.030169172
192	0xbc967102	-0.018364433
193	0xbc11ff38	-0.008910947
194	0xbd03af67	-0.0321497
195	0xbcc62938	-0.024189577
196	0x3cbafdf5	0.022826174
197	0xbcb5f0ad	-0.02220949
198	0x3b0a6ec5	0.0021123153
199	0x3cab3748	0.020900384
200	0xbbc1f49f	-0.0059190537
201	0xbb303949	-0.0026889613
202	0xbc9e5222	-0.019326273
203	0xbc6e1d3a	-0.014533335
204	0x3ab75fae	0.0013990307
205	0xbc8d3652	-0.017237816
206	0x3cdf5026	0.027259897
207	0x3bacc631	0.0052726497
208	0xbc2b6154	-0.010460217
209	0x3bd68281	0.006546319
210	0xbcad2b2d	-0.021138752
211	0x3d1992d2	0.037493534
212	0x3b679319	0.003533548
213	0x3c8b83e6	0.017030668
214	0x3cca8048	0.024719372
215	0x3c96fc73	0.018430924
216	0x3cbd701b	0.023124745
217	0xbc819550	-0.015818268
218	0xbaa59da0	-0.0012635477
219	0x3b722560	0.0036948547
220	0x3c34cc16	0.011034986
221	0x3b752809	0.0037407896
222	0x3d0c4ef4	0.034254983
223	0xbbf8b4c2	-0.0075899074
224	0x3caff443	0.021478778
225	0xbc87cefe	-0.016578194
226	0xbb3078b3	-0.002692741
227	0x3cd53b69	0.026029306
228	0xbd1a7290	-0.03770691
229	0x3ccfe03e	0.025375482
230	0x3bbbdaae	0.0057328558
231	0x3cd63fed	0.026153529
232	0x3c27e42a	0.01024727
233	0xbc3ee55f	-0.011651366
234	0xbc4f19e5	-0.012640451
235	0xbc458ad3	-0.012057024
236	0xbc239f1b	-0.009986664
237	0xbc6baa02	-0.014383795
238	0x3c73053f	0.014832794
239	0x3bc700d8	0.0060730986
240	0x3caaa1e4	0.020829149
241	0xbaa4e100	-0.0012579262
242	0xbc3e5ff6	-0.011619559
243	0xbbdf4088	-0.0068131126
244	0xbcf5a74b	-0.029986998
245	0xbc8d9865	-0.017284581
246	0xb9afcf1f	-0.00033532918
247	0x3cda0ea1	0.026618304
248	0xbc4ffe90	-0.01269497
249	0xbc25d24c	-0.010120939
250	0xba3b37db	-0.0007141807
251	0xb97b1914	-0.00023946568
252	0xbba750c0	-0.0051060617
253	0x3c5d8841	0.013521255
254	0x3c7ee8a1	0.015558393
255	0x3a83270c	0.0010006144

bias f4 [25]
0	0x3ca3534e	0.019937184
1	0x3aac1cda	0.0013131157
2	0x3cd18ecc	0.025580786
3	0x3c37a5f2	0.011208998
4	0xbc1a1106	-0.009403473
5	0xbc4234fa	-0.011853451
6	0x3cf3ecdf	0.029776035
7	0x3d1ae463	0.037815463
8	0x3c844a92	0.01614884
9	0x3d290658	0.041265815
10	0xbba95c74	-0.005168492
11	0xbb1986d2	-0.0023426306
12	0x3d147e86	0.036253475
13	0x3b93d279	0.0045111743
14	0x3d26a2a8	0.040682465
15	0x3c440dd5	0.011966188
16	0x3d040b8f	0.032237586
17	0x3cbdb75a	0.023158718
18	0xbc8cf83c	-0.017208211
19	0xbc2a6894	-0.01040091
20	0x3c011d5b	0.007880534
21	0x3cdcdba3	0.0269602
22	0xbca2b47a	-0.019861449
23	0x3c7623b6	0.015023163
24	0x3d27479c	0.040839776

weight f4 [25, 50, 5, 5]
0	0x3c82fa16	0.01598839
1	0xbbc6febe	-0.006072848
2	0xbc7497ff	-0.014928817
3	0x3ce24ac8	0.02762355
4	0x3ba03cb3	0.0048900484
5	0x3ccf546c	0.02530881
6	0xbc8efd81	-0.017454864
7	0x3ce247f4	0.0276222
8	0x3ce5ae57	0.028037233
9	0x3c3dc4a3	0.011582526
10	0x3cf5c463	0.030000871
11	0xbbd77d4e	-0.006576217
12	0xbc90f3e4	-0.017694421
13	0x3c25e37f	0.01012504
14	0x3ca21d3c	0.01978933
15	0xbbb3bb27	-0.005484957
16	0xbc3956ec	-0.011312228
17	0x3ac4152e	0.0014959925
18	0xbb50d880	-0.0031867325
19	0xbba4c894	-0.0050287936
20	0x3b1acdf5	0.0023621295
21	0x3bd027ef	0.0063524167
22	0x3c48a531	0.012246416
23	0x3c268e15	0.010165711
24	0x3cb75d40	0.022383332
25	0xbbe5f0c5	-0.0070172274
26	0xbcabb5f6	-0.02096079
27	0xbc556edc	-0.013026919
28	0xbc5335f2	-0.0128912795
29	0x3c85277f	0.016254185
30	0x3cf61146	0.030037533
31	0x3cb668a2	0.02226669
32	0x3d0290dc	0.03187643
33	0xbc82ba77	-0.015958054
34	0x3cd38d9e	0.025824364
35	0x3c50bf0f	0.012740864
36	0x3cdce04f	0.026962427
37	0xbc6db8c9	-0.014509388
38	0x3cfd5a47	0.030926837
39	0xbb976d73	-0.0046212017
40	0xb98b1188	-0.00026525208
41	0x3b055274	0.0020343335
42	0x3cd40cc0	0.025884986
43	0x3c3ce0dc	0.01152822
44	0x3baac46c	0.0052114036
45	0x3bfab85b	0.0076513714
46	0x3c5cd7d0	0.013479188
47	0x3c6a9e87	0.014320022
48	0xbc124bb2	-0.00892918
49	0xbbbce478	-0.0057645403
50	0x3cfcb028	0.030845717
51	0xb98c8edb	-0.00026809316
52	0x3bd6a888	0.006550852
53	0xbca68040	-0.020324826
54	0xbcacb6dc	-0.021083288
55	0x3cb2fc20	0.021848738
56	0x3c85c467	0.016329003
57	0x3cfebbf8	0.03109549
58	0x3c29b624	0.010358367
59	0x3c897c63	0.016782945
60	0x3b92afab	0.0044765077
61	0xbc048061	-0.008087249
62	0xbacd26cc	-0.0015651821
63	0x3cdc064e	0.026858475
64	0x3b6b41da	0.0035897405
65	0x3ccedc38	0.025251493
66	0x3c2a2471	0.010384665
67	0xbb8ef91c	-0.0043631922
68	0xbc2b4034	-0.010452319
69	0x3c935347	0.017984046
70	0x3cabc6a9	0.020968752
71	0xbb1232b0	-0.0022308044
72	0x3c68d401	0.014210702
73	0xbb227fd2	-0.0024795425
74	0x3cf58914	0.02997259
75	0xbc9b6556	-0.01896922
76	0x3afcec9c	0.0019296589
77	0x3cd4169b	0.025889685
78	0xbbc69e0e	-0.006061322
79	0x3cad51be	0.021157142
80	0x3c873642	0.016505364
81	0x3ceba30d	0.028764272
82	0x3bc0e6bd	0.005886881
83	0x3a0d1e72	0.000538326
84	0xba7f7d6a	-0.0009746166
85	0xbb91f346	-0.0044540493
86	0x3be28f2d	0.0069140405
87	0x3c2cb559	0.0105412835
88	0x3b15af97	0.0022840255
89	0x3c4b79d0	0.012419179
90	0x3c6c2547	0.0144131845
91	0xbc158034	-0.009124804
92	0xbc9dbe2b	-0.019255718
93	0x3b9cb5e0	0.0047824234
94	0x3c5411fd	0.012943742
95	0x3c54bb34	0.012984086
96	0x3ac72ff1	0.0015196783
97	0xbc46ba5b	-0.012129392
98	0x3c7227e9	0.014780023
99	0x3c3fe0fb	0.011711354
100	0xbbac2a7a	-0.005254087
101	0x3bc25d57	0.005931537
102	0x3c551c99	0.0130073065
103	0x3c983d26	0.018583845
104	0x3be11918	0.0068694465
105	0x3a95fa60	0.0011442415
106	0xbc595fc2	-0.013267459
107	0x3c2aa0ed	0.010414344
108	0x3bc36dcb	0.005964016
109	0x3bb273c4	0.0054459292
110	0xbccc5792	-0.0249441
111	0xbc278fcc	-0.010227155
112	0x3b7fcab9	0.0039030744
113	0x3c02b751	0.007978276
114	0xb9f0a54c	-0.00045899523
115	0xbb528c9b	-0.0032127264
116	0xbc236533	-0.009972858
117	0xbc110b9e	-0.008852867
118	0x3b298093	0.002586399
119	0xba6848ec	-0.0008860964
120	0x3ae5f0de	0.0017543097
121	0xbc02c8a1	-0.007982404
122	0xbb2460e5	-0.0025082168
123	0xbc8aec7c	-0.016958468
124	0xbc1f0bd6	-0.009707412
125	0x3cc9a840	0.02461636
126	0x3cd6fc13	0.026243245
127	0x3b82f0d2	0.003995993
128	0x3ce3c41a	0.02780347
129	0x3c049647	0.00809247
130	0x3c3c943c	0.011509951
131	0x3bff0451	0.007782497
132	0x3c7993b5	0.01523297
133	0xbc2268bf	-0.009912669
134	0x3c2864fd	0.010277984
135	0xbb898153	-0.004196325
136	0xbbae9f8d	-0.0053290785
137	0x3ba1257b	0.004917798
138	0xbb678d9c	-0.0035332208
139	0xbc4baf5a	-0.012431944
140	0xbc169b9c	-0.009192374
141	0xbc0d65d0	-0.008630231
142	0x3c7eb1fd	0.015545365
143	0xbbbeac2f	-0.0058188657
144	0x3c906591	0.017626556
145	0xba917c44	-0.0011099656
146	0x3cf2879b	0.029605677
147	0x3b120fe4	0.0022287304
148	0x3cde1f34	0.027114488
149	0x3c909bf2	0.017652486
150	0x3ca26b4f	0.01982656
151	0xbb73c4c7	-0.0037196146
152	0x3b71a815	0.0036873866
153	0x3cf6e6a1	0.03013927
154	0x3cdc3b0d	0.026883626
155	0xbcacd6d7	-0.021098537
156	0x3cc33dc4	0.023833163
157	0x3ce96952	0.028492603
158	0x3c91cd19	0.017797993
159	0x3c41a943	0.01182014
160	0xbc8cf3cf	-0.0172061
161	0x3bc19363	0.0059074624
162	0x3cd178d6	0.025570314
163	0x3cef54b2	0.02921519
164	0x3c83463c	0.016024701
165	0x3c87221d	0.016495759
166	0x3cb0a2ec	0.021562062
167	0x3cf87580	0.030329466
168	0xbcb0d38d	-0.02158525
169	0x3c7f5328	0.015583791
170	0x3bf18904	0.00737107
171	0x3c7f9255	0.015598853
172	0xbc9af96c	-0.018917762
173	0xbcb40aa2	-0.021977726
174	0xbc27740f	-0.010220542
175	0x3bc2dc1b	0.005946649
176	0xbc5de98b	-0.0135444505
177	0xbc945299	-0.018105792
178	0x3abe605b	0.0014524566
179	0x3c3d6a93	0.011561054
180	0x3b103d88	0.0022009332
181	0x3c33c805	0.010972981
182	0x3c4556dd	0.012044636
183	0x39539371	0.00020177454
184	0xbbad9daa	-0.005298336
185	0x3c78b153	0.015178996
186	0x3c43a4e4	0.011941168
187	0x3c6c444c	0.01442058
188	0xbbe09f13	-0.0068549006
189	0xbc351f7f	-0.011054873
190	0x3c4de4e6	0.012566781
191	0xbbc67e13	-0.0060575097
192	0xbb9efabc	-0.004851667
193	0x3a621680	0.00086245686
194	0xbb08bfc7	-0.0020866261
195	0x3cb203df	0.021730362
196	0xbc06e68b	-0.008233677
197	0x3c3fd0e8	0.011707522
198	0x3900a117	0.00012267042
199	0x3bf218b5	0.007388199
200	0xbc7acaba	-0.015307123
201	0xbc705ef4	-0.014671076
202	0xbb10fae5	-0.00221222
203	0xbc5c1ebb	-0.013435061
204	0x3c238ac6	0.009981817
205	0x3cbbff65	0.02294893
206	0x3c387842	0.01125914
207	0x3c6e6c39	0.0145521695
208	0xbc829b9b	-0.01594334
209	0xbaa1e572	-0.0012351705
210	0xbb808d2d	-0.0039230795
211	0xbcb79b82	-0.02241302
212	0x3ad83f2a	0.0016498317
213	0xbc0bdcff	-0.008536576
214	0xbc26cb04	-0.010180239
215	0xbcaabe71	-0.020842763
216	0xbc8268e3	-0.015919155
217	0xbcdbfab5	-0.026852945
218	0x3c0a6755	0.008447488
219	0x3cc026de	0.023456033
220	0x3bcf256f	0.006321601
221	0xbc80a0fe	-0.015701767
222	0xbbcf8456	-0.0063329143
223	0x3cc91287	0.024544967
224	0xbc4434d5	-0.011975487
225	0x3c61be7c	0.013778325
226	0x3c4101cf	0.011780216
227	0x3c479194	0.012180705
228	0x3cc4a046	0.024002206
229	0x3c861721	0.01636845
230	0xbc937caf	-0.01800379
231	0x3cacd258	0.021096393
232	0x3cc5fcb4	0.02416835
233	0x3c839b07	0.016065134
234	0x3cd3f16f	0.02587196
235	0x3c83516e	0.01603004
236	0x3b96aaee	0.004598013
237	0x3c4d81c2	0.012543144
238	0xbc6f6344	-0.014611069
239	0x3ca19177	0.019722683
240	0x3cf00ba0	0.029302418
241	0x3cdaff3a	0.02673303
242	0x3cace578	0.021105513
243	0x3ca31a22	0.019909922
244	0x3a86da72	0.001028849
245	0x3c8a8726	0.016910147
246	0xbbd58f0d	-0.006517297
247	0xbc171eed	-0.009223682
248	0xbcb38157	-0.02191226
249	0x3cae7592	0.021296296
250	0xbc76e5f5	-0.0150694745
251	0xba95bfa7	-0.0011424915
252	0x3c76bc10	0.015059486
253	0xbcb7c601	-0.022433283
254	0x3c7ab3a1	0.015301616
255	0xbbe3a67b	-0.0069473363

bias f4 [50]
0	0x3cad550f	0.021158723
1	0xbb2e7ac8	-0.0026623476
2	0x3cf31b3f	0.029676078
3	0x3c994261	0.01870841
4	0xb8e7051a	-0.000110158886
5	0x3b6757cb	0.0035300131
6	0x3cc9409c	0.024566941
7	0x3c14107a	0.009037131
8	0x3c972182	0.018448595
9	0x3bf0d8f7	0.007350083
10	0xbc20745c	-0.009793367
11	0xbb46f934	-0.003036094
12	0xbc441304	-0.011967424
13	0x3be7cfa0	0.0070743114
14	0x3c6e711a	0.014553333
15	0xb94fbf87	-0.00019812408
16	0xbc173079	-0.009227865
17	0x3c678c2d	0.014132542
18	0x3cfbb6ca	0.030726809
19	0x3c9ea09a	0.01936369
20	0x3c6cefd4	0.014461476
21	0x3b40985f	0.0029387695
22	0xbc618806	-0.013765341
23	0x3ce369f0	0.027760476
24	0xb90eb9b1	-0.00013611351
25	0xba7c170d	-0.0009616472
26	0x3c61f724	0.013791833
27	0xbc0b19c0	-0.008490026
28	0xbb2f29c5	-0.0026727777
29	0x3ca415e9	0.020029979
30	0xbb134557	-0.002247175
31	0xbb8ae85a	-0.0042391242
32	0x3c676e9e	0.014125494
33	0x3ccad720	0.024760783
34	0x3b336612	0.002737407
35	0x3b385491	0.0028126577
36	0x3bace295	0.005276034
37	0x3c942fbb	0.018089166
38	0x3c91ca16	0.017796557
39	0x3bbcb2f3	0.005758637
40	0x39b2e862	0.00034123944
41	0x3cc58a72	0.024113867
42	0xb8f84b9c	-0.00011839645
43	0x3c22cd42	0.009936633
44	0xb9806567	-0.00024489613
45	0x3ce65100	0.028114796
46	0xb7a5a544	-1.974649e-05
47	0x3c8feb08	0.017568126
48	0x3b8f1275	0.004366214
49	0xba94e51d	-0.0011359785

weight f4 [50, 60, 5, 5]
0	0xb9ac5309	-0.00032868262
1	0x3c2db33f	0.010601818
2	0x3c73c745	0.0148790525
3	0x3be9bf3a	0.0071333917
4	0x3b9adc03	0.0047259345
5	0xbc90d5ae	-0.017680015
6	0xbc5f74c1	-0.013638676
7	0x3c225567	0.009908057
8	0xbb084332	-0.0020792005
9	0x3a9dd781	0.0012042375
10	0xbb7b98f1	-0.003839072
11	0x3bddfd36	0.00677457
12	0x3c9e5769	0.01932879
13	0x3bfc873e	0.007706552
14	0xbc1221b0	-0.008919165
15	0x3ba9ee87	0.0051859054
16	0x3bcc904a	0.0062427865
17	0x3c08fd1c	0.008361127
18	0xbc7c09c2	-0.015383186
19	0xbad2172a	-0.0016028632
20	0xbaf2a8a1	-0.001851339
21	0xbbfb1a27	-0.0076630297
22	0xbb1ef0a5	-0.0024252322
23	0x3c63b3d8	0.013897859
24	0xbc6f9a04	-0.0146241225
25	0xbc4f694d	-0.012659383
26	0xbc0f2915	-0.008737822
27	0x3cbb1550	0.022837311
28	0xbc053db2	-0.008132385
29	0xbc95d7d7	-0.018291397
30	0x3c589e09	0.013221272
31	0x3b47a384	0.0030462453
32	0x3cf6f289	0.030144947
33	0x3c516fdb	0.012783016
34	0x3ca3fdd1	0.02001849
35	0x3cd660ef	0.026169268
36	0x3cc69a73	0.024243569
37	0xbc86730c	-0.01641228
38	0x3c168bb7	0.009188584
39	0xbb4748fd	-0.0030408495
40	0x3cd2123e	0.025643464
41	0x3cf02b83	0.029317623
42	0x3c2424d0	0.010018542
43	0x3ccb5ee9	0.02482553
44	0xba7a7c1c	-0.0009555237
45	0x3ca01c4b	0.019544741
46	0x3c5905d1	0.013246016
47	0x3ba7532d	0.005106351
48	0xbb9da753	-0.0048112064
49	0xbc4d6b11	-0.012537734
50	0xbca23065	-0.019798467
51	0xbc4fe666	-0.012689209
52	0x3c971d5b	0.018446615
53	0xbc9f7545	-0.019465098
54	0x3cfa4fb1	0.030555578
55	0x3c2520f2	0.010078656
56	0x3c0ecfd5	0.008716543
57	0x3cfbb9cc	0.030728243
58	0x3cb76372	0.022386286
59	0xbc9fe307	-0.019517435
60	0xbc1034b5	-0.008801629
61	0x3c4a4841	0.012346328
62	0x3cbd4581	0.023104431
63	0x3cef6202	0.029221538
64	0x3ba0650d	0.0048948587
65	0x3cf36ba1	0.029714407
66	0xbc15c16a	-0.009140352
67	0x3b4d8f19	0.003136581
68	0xbc12c426	-0.008957898
69	0x3bc83f4a	0.0061110603
70	0x3cef24de	0.029192384
71	0x3ba8bbde	0.0051493486
72	0xbc6a6d3e	-0.014308272
73	0xbc3decae	-0.011592073
74	0xbbcd71c7	-0.006269667
75	0x3bfa0b72	0.007630759
76	0x3c0fadc0	0.008769453
77	0xbca1fce5	-0.01977391
78	0xbaf9e316	-0.0019064869
79	0x3cb2c0b3	0.021820402
80	0x3cb9043e	0.02258503
81	0xbb706512	-0.0036681336
82	0xbc16cbe1	-0.009203882
83	0x3c51a8d5	0.0127966
84	0x3c7330b7	0.0148431575
85	0x3bde3573	0.006781274
86	0x3c354ace	0.011065198
87	0xbb4b826c	-0.003105308
88	0x3c1a45b9	0.009416037
89	0xbba4b8bc	-0.005026905
90	0x3ccb3548	0.02480568
91	0xbc5d04c7	-0.013489909
92	0x3c721a9a	0.01477685
93	0x3ca953d7	0.02066986
94	0x3c065da4	0.008201037
95	0xbaf6a7b5	-0.0018818291
96	0x3c843e68	0.016143039
97	0x3cf06b5f	0.029348074
98	0xbca111c6	-0.019661795
99	0xbc3335ce	-0.010938121
100	0xbc52c3f6	-0.012864104
101	0xbb8f995e	-0.0043822965
102	0x3cdb6bdb	0.026784828
103	0xbc675719	-0.014119887
104	0x3b5fa6ee	0.0034126597
105	0x3cb638e1	0.022243919
106	0x3cf89d94	0.030348577
107	0x3c996b57	0.018727941
108	0x3a46fad5	0.00075904775
109	0x3c72dcdf	0.014823168
110	0x3ccddadd	0.025128776
111	0xbc5db5d0	-0.013532117
112	0xbc0dfea6	-0.00866667
113	0x3cc4b563	0.024012273
114	0x3ce77d10	0.028257877
115	0xbbad5a1b	-0.0052902824
116	0xbc0be8a8	-0.008539356
117	0x3cb9e3e2	0.02269167
118	0x3c278ad4	0.01022597
119	0x3b5cfdaf	0.0033720543
120	0x3c8225ed	0.015887225
121	0xbbd98927	-0.0066386643
122	0xb954d89a	-0.00020298586
123	0x3c38bef0	0.011275992
124	0x3c553335	0.013012697
125	0xbc394b2a	-0.011309424
126	0x3c293fac	0.010330122
127	0x3cd55082	0.026039366
128	0x3cd84cf7	0.026403887
129	0xba9db7aa	-0.0012032886
130	0xbc4ba5d8	-0.012429677
131	0x3cb95778	0.022624716
132	0xbcaa86f5	-0.020816306
133	0x3b4d0203	0.0031281717
134	0xbbfc4681	-0.0076988344
135	0xbc10222c	-0.00879721
136	0x3c4f2aac	0.012644451
137	0xbadcb282	-0.0016837867
138	0x3cad48e0	0.021152914
139	0xbcade86e	-0.021228995
140	0xbcb977b9	-0.022640096
141	0xbcace0dd	-0.021103317
142	0xbb47cbd5	-0.0030486484
143	0x3cd78ade	0.026311334
144	0x3c935d37	0.017988784
145	0x3c92002a	0.017822344
146	0xbc8742d8	-0.016511366
147	0x3c6e281f	0.014535933
148	0xbb89e47d	-0.004208146
149	0x3cbc33ef	0.022973983
150	0x3b8fc02c	0.0043869223
151	0x3c6d1d61	0.0144723365
152	0xbbfdd187	-0.007745925
153	0x3c15ccb8	0.009143047
154	0x3cc017bd	0.02344882
155	0x3c21b88b	0.009870659
156	0x3c9a82b8	0.01886116
157	0xbb51f0a9	-0.0032034314
158	0x3c4be59b	0.012444879
159	0x3c865991	0.01640013
160	0xbc7d9a76	-0.015478721
161	0x3c86a4b6	0.016435962
162	0x3aa8918e	0.0012860761
163	0x3c8c1782	0.017101053
164	0x3c04fa56	0.008116325
165	0x3bb2bee5	0.0054548853
166	0x3ca78c0b	0.02045252
167	0x3c6db8d3	0.014509398
168	0x3cde44ba	0.02713238
169	0x3b314014	0.002704625
170	0x3c2a06f9	0.010377639
171	0x3c864344	0.016389497
172	0x3c805c64	0.015669055
173	0x3c99416c	0.018707953
174	0x3c21882a	0.009859124
175	0xbc76a297	-0.015053413
176	0x39d36926	0.00040323398
177	0x3bddeba7	0.0067724767
178	0x3aeede51	0.0018224214
179	0xbbc9eb94	-0.0061621163
180	0x3bb17227	0.0054152193
181	0x3c740dc2	0.014895858
182	0x3c7368a8	0.014856495
183	0x3c8b19d2	0.016980086
184	0xbbacf173	-0.0052778064
185	0x3c1ce9fe	0.009577272
186	0x3ccb030a	0.024781723
187	0x3c63c598	0.0139020905
188	0xbbcdaafe	-0.0062764874
189	0x3b97779b	0.0046224124
190	0x3b6f3dc3	0.0036505319
191	0x3c458202	0.012054922
192	0x3c1caeb0	0.009563133
193	0x3b17ed47	0.00231822
194	0xbc1fa02f	-0.009742781
195	0x3c08ee2b	0.008357565
196	0x3b2d51ce	0.0026446464
197	0x3bd92e42	0.006627829
198	0xbb37e273	-0.0028058558
199	0xbc760752	-0.015016394
200	0x3cd1c2d9	0.025605606
201	0xbcad9196	-0.021187585
202	0x3c102366	0.008797502
203	0xbc1de5f1	-0.009637342
204	0xbc0977a3	-0.00839034
205	0xbbbec10f	-0.005821354
206	0x3a7ebd76	0.0009717563
207	0xbc891246	-0.016732346
208	0xbc8fcf9d	-0.017555052
209	0x3c508904	0.01272798
210	0xbbfdc5b7	-0.0077445167
211	0x3cc75932	0.024334524
212	0x3bb1b342	0.0054229805
213	0xbc181692	-0.009282725
214	0x3c82cd3e	0.015967008
215	0x3c45ecea	0.0120804105
216	0xbc93eab2	-0.018056247
217	0xba612ba7	-0.00085895736
218	0x3bb15ca6	0.005412656
219	0x3cda8641	0.026675345
220	0xbc55b495	-0.013043542
221	0xbca5bb0e	-0.020230796
222	0x3cb40564	0.021975227
223	0x3bba0765	0.005677151
224	0x3b85bbda	0.0040812315
225	0x3c5e9ab6	0.013586691
226	0x3c547edd	0.0129697
227	0x3c832d09	0.016012685
228	0xbb21fa51	-0.002471585
229	0x3cd93894	0.026516236
230	0xbb9b699e	-0.004742815
231	0xbc0f431f	-0.00874403
232	0x3cab3f88	0.020904317
233	0x3c5bceda	0.0134160165
234	0xbc5b909c	-0.013401177
235	0xbc89ceee	-0.016822305
236	0xbbd0c29a	-0.0063708546
237	0xbc5964aa	-0.013268629
238	0xbc00d93f	-0.0078642955
239	0x3c4562ff	0.012047528
240	0x3cbfb862	0.02340335
241	0x3ca8e96b	0.020619115
242	0xbba6d56a	-0.005091359
243	0x3c83e0b8	0.016098365
244	0x3c1e7286	0.009670859
245	0xbc680212	-0.01416065
246	0xbb843006	-0.004034045
247	0x3be1e206	0.006893399
248	0x3c97e1e3	0.018540328
249	0x3b7f3443	0.0038941063
250	0xbba23010	-0.004949577
251	0x3c9fc99e	0.019505318
252	0x3c73e7f4	0.014886845
253	0xbc7f7053	-0.015590745
254	0xbca99abe	-0.02070367
255	0x3adee8aa	0.0017006595

bias f4 [60]
0	0xbc14ce15	-0.009082337
1	0x3c2797cd	0.010229063
2	0x3c57af5b	0.013164367
3	0x3cdb9a4d	0.026806975
4	0x3cd66137	0.026169403
5	0x3cb1ceb1	0.021705003
6	0x3b956a83	0.0045598163
7	0xbc1c2ccc	-0.009532165
8	0x3ca3c2d4	0.019990362
9	0x3bd8eafb	0.0066198087
10	0x3c816e71	0.015799733
11	0xbb08d921	-0.0020881372
12	0xbbe010c3	-0.0068379357
13	0xbc2b7378	-0.010464542
14	0x3c805b89	0.015668647
15	0x3c4b21d8	0.012398206
16	0x3c2bbdf4	0.0104823
17	0x3c6503fa	0.013977999
18	0x3c3b0d85	0.0114167975
19	0xba23dfbd	-0.0006251296
20	0xbbb70b78	-0.005586084
21	0x3cadb197	0.021202845
22	0x3bef4c8a	0.0073028253
23	0x3bf4123f	0.007448464
24	0x3c261368	0.010136463
25	0x3cf83c55	0.030302206
26	0x3c84d440	0.01621449
27	0x3c351519	0.011052393
28	0xbbc31ffd	-0.005954741
29	0x3c916a79	0.017750965
30	0x3c3cdf60	0.011527866
31	0x3c52f969	0.012876847
32	0x3b80d7d9	0.003931981
33	0x3ae573e2	0.0017505849
34	0x3cc171c0	0.02361381
35	0xad8d6eae	-1.6078996e-11
36	0x3c16ffea	0.009216288
37	0xbbb0bbf7	-0.005393501
38	0xbc843b2c	-0.016141497
39	0x3c26d816	0.010183355
40	0x3ca4377d	0.02004599
41	0x3c95e852	0.018299256
42	0x3cc02ff8	0.023460373
43	0x3ceb6f2f	0.02873954
44	0x3c0971b4	0.008388925
45	0xb5070433	-5.029753e-07
46	0x3c854d36	0.016272169
47	0xbc4efc1d	-0.012633351
48	0xbc457ee3	-0.012054178
49	0xbaa0bd26	-0.0012263402
50	0x3cbd1b1c	0.023084216
51	0x3bc7e7ec	0.0061006453
52	0x3c2f1702	0.010686638
53	0xbbdc9f2c	-0.006732842
54	0x39f1b1e3	0.00046099638
55	0x3c088519	0.008332514
56	0xbadb91f7	-0.0016751875
57	0x3c2c1df3	0.010505187
58	0xbb801b05	-0.003909471
59	0xb68bccd9	-4.16637e-06

weight f4 [50, 60, 5, 5]
0	0xbc2811de	-0.010258166
1	0x3adb9a57	0.0016754371
2	0x3c2191d4	0.009861428
3	0x3c61c347	0.013779468
4	0x3c6f213b	0.014595325
5	0xbb9355d8	-0.0044963174
6	0x3bc54e90	0.0060213283
7	0x3c385e4a	0.011252949
8	0x3c11f1e9	0.0089077735
9	0x3c3441e0	0.011002034
10	0x3ba30237	0.0049746293
11	0x3c3f97d7	0.011693916
12	0x3c69142d	0.014226002
13	0x3c112817	0.008859656
14	0x3c0345b5	0.008012225
15	0x3c2eebd8	0.010676347
16	0x3c863a16	0.01638512
17	0x3c6b775e	0.014371721
18	0x3bb682b2	0.0055697793
19	0x3b5b5bcd	0.0033471466
20	0x3c206ae0	0.009791106
21	0x3c4d4bc5	0.012530272
22	0x3c1d3cc7	0.00959701
23	0xbaa96509	-0.0012923788
24	0x395c0bbd	0.00020985208
25	0xbc8d11f3	-0.017220473
26	0xbcb6dcbc	-0.022322051
27	0xbcacc429	-0.02108963
28	0xb7e76c44	-2.7587761e-05
29	0x3bc7900a	0.006090169
30	0xbc996ae8	-0.018727735
31	0xbc3e96c5	-0.011632626
32	0xbb1bb4d8	-0.0023758914
33	0xbb6d6a86	-0.0036226823
34	0x3c8746ac	0.016513191
35	0x3bdadae9	0.006678928
36	0xbc03760a	-0.008023748
37	0x3c72566a	0.0147911105
38	0x3c01720c	0.007900726
39	0xbc28ccb7	-0.010302714
40	0x3c5bad34	0.013407994
41	0x3c4fe120	0.012687951
42	0x3c051bec	0.008124333
43	0xbc2b88a1	-0.010469587
44	0x3c133a01	0.008985997
45	0x3c44d1c2	0.012012901
46	0x3b967fc3	0.004592867
47	0x3c06b38c	0.008221518
48	0x3be36291	0.0069392403
49	0x3a1e8361	0.00060467987
50	0xbc8c87a5	-0.017154524
51	0xbc80b1ce	-0.015709784
52	0xbccc66cd	-0.024951363
53	0xbb779cb0	-0.0037782602
54	0xbc9aff97	-0.018920703
55	0xbc7d4700	-0.015458822
56	0xbc807f16	-0.0156856
57	0x3c4c290e	0.01246096
58	0xbb7b0944	-0.0038305083
59	0xbc32c9f5	-0.010912408
60	0xbc810fe3	-0.015754646
61	0x3c4ae549	0.012383767
62	0xbc2c0f6f	-0.0105017265
63	0xbc139eea	-0.009010056
64	0x382110cd	3.840104e-05
65	0xbc8861c4	-0.01664818
66	0x3a2c5971	0.0006574607
67	0xbc47e1d5	-0.012199839
68	0x3c4ee94a	0.012628863
69	0xbc5119dc	-0.012762513
70	0x3c1e94fc	0.009679075
71	0xbb85ac59	-0.0040793833
72	0x3bcbd443	0.006220372
73	0xba084f3b	-0.00051997945
74	0xba5ccc32	-0.00084227615
75	0xbb29ab96	-0.0025889627
76	0xbb88f26c	-0.0041792896
77	0xbb4b1521	-0.0030987936
78	0xbc3cc821	-0.011522324
79	0xbac364a8	-0.0014907317
80	0xbc8a32b1	-0.016869875
81	0xbc197748	-0.009366818
82	0xbc9870dc	-0.018608503
83	0xbca6c38a	-0.020356912
84	0xbb1d6b71	-0.002402034
85	0xbc9010cb	-0.017586133
86	0x3c7b245f	0.015328496
87	0xbb854a7d	-0.0040677176
88	0xbac04507	-0.0014669009
89	0xbac646e9	-0.0015127334
90	0xbb4972a3	-0.0030738495
91	0x3b6ec1d9	0.003643146
92	0xbc9fef59	-0.01952331
93	0xbc8d44f0	-0.017244786
94	0xbc9c4e3a	-0.01908027
95	0xbc040f61	-0.008060307
96	0x3c99e061	0.01878375
97	0x3c80979e	0.015697297
98	0xbc045c8f	-0.008078708
99	0xbc75a11f	-0.014992028
100	0xba17d259	-0.0005791537
101	0x39cab559	0.00038663557
102	0x3b13372c	0.0022463305
103	0x3babf6e3	0.005247937
104	0xbc04409a	-0.008072043
105	0xbc317d1d	-0.010833052
106	0xbb257075	-0.0025244032
107	0xbb86f96a	-0.004119088
108	0xbc957b4b	-0.018247267
109	0x3c09d768	0.008413173
110	0x3c881c37	0.016615016
111	0x3c67f626	0.014157807
112	0x3c92ff4c	0.017944
113	0xbb6ff7b0	-0.003661614
114	0xbca73531	-0.020411106
115	0xbbff45c6	-0.0077903
116	0xbc2cc775	-0.010545601
117	0x3bccdd8d	0.006251997
118	0x3b40ee51	0.0029438923
119	0x3c0b711d	0.008510855
120	0x3c739378	0.014866702
121	0x3c9d0db5	0.019171575
122	0x3c3df208	0.011593349
123	0xbb345bdf	-0.002752058
124	0xbcbaa43f	-0.022783397
125	0xbbfd71f7	-0.007734533
126	0xbbae367e	-0.0053165546
127	0xbae4e76e	-0.0017463991
128	0x3b961591	0.0045802076
129	0x3b4e4cf4	0.0031478973
130	0x3bc4e400	0.006008625
131	0xbc6e0713	-0.014528054
132	0xbb05cc0c	-0.002041581
133	0xbbe9c72c	-0.007134339
134	0x3ab147dc	0.0013525444
135	0xbc0fc7a5	-0.008775626
136	0x3bfa2909	0.0076342863
137	0xbc074d88	-0.008258231
138	0xbb5a487d	-0.0033307367
139	0xbb56bef5	-0.0032767628
140	0x3c0aa64d	0.008462501
141	0x38aacdb7	8.144549e-05
142	0xbb2a86d1	-0.0026020298
143	0x3b301079	0.0026865287
144	0xbc00a46c	-0.007851701
145	0xbac39cf0	-0.001492409
146	0xbb8a48f6	-0.0042201234
147	0xba810b97	-0.0009845373
148	0xbbc9636c	-0.006145885
149	0x3a92cac0	0.001119934
150	0xbc0acdb0	-0.008471891
151	0xbca64630	-0.02029714
152	0x3b8a9da5	0.0042302185
153	0x3b820f80	0.003969133
154	0x3c36d655	0.011159499
155	0x3b88a2c0	0.004169792
156	0x3c2cc5af	0.010545178
157	0xbc81d9f6	-0.015851002
158	0x3c62334a	0.013806174
159	0xbbe4fcc8	-0.0069881417
160	0x3bb9dc45	0.00567201
161	0xbaed9678	-0.0018126508
162	0xbc0deaaf	-0.00866191
163	0xbc187b93	-0.009306806
164	0xbc08d771	-0.0083521465
165	0xbb1cffed	-0.0023956255
166	0x3c7e3470	0.015515432
167	0xbbb5bb09	-0.005545978
168	0xbc16911f	-0.009189873
169	0xbb77d6c4	-0.003781722
170	0x3c0d8244	0.008637015
171	0xbc25dba8	-0.010123171
172	0xbc8b175e	-0.016978916
173	0x3c4bc1f7	0.012436382
174	0xbb6d565f	-0.0036214811
175	0xbb53633c	-0.0032255193
176	0x3b2524c1	0.002519891
177	0x3bc1d3e3	0.0059151514
178	0x3bb4a5c3	0.0055129244
179	0x3bcceb49	0.006253634
180	0xb941886a	-0.00018456733
181	0x3b8e8953	0.0043498664
182	0x3ba58996	0.005051802
183	0x3b821da4	0.0039708186
184	0x3b67d59a	0.003537512
185	0x3b84fe4f	0.0040586363
186	0x3beb28fe	0.0071765175
187	0x3b8561dd	0.004070504
188	0x3ac73f01	0.0015201272
189	0x3b242095	0.0025043834
190	0x3bcd0d1a	0.0062576653
191	0x3bbf6434	0.0058408026
192	0x3b1a4dd0	0.0023544915
193	0xba17f292	-0.00057963387
194	0x3ae0110b	0.0017094923
195	0x3baef686	0.0053394465
196	0x3bb42f04	0.0054987688
197	0x3aca3888	0.0015428225
198	0xba961a42	-0.0011451917
199	0x3aa4e2c8	0.0012579793
200	0xba22895c	-0.0006200278
201	0xbbf145cf	-0.007363058
202	0x3b80721c	0.003919853
203	0xbbe1613a	-0.0068780454
204	0xbc3c4381	-0.011490704
205	0xbb1c004c	-0.0023803888
206	0x3c4c7a65	0.012480353
207	0x3c6ff9f1	0.014646993
208	0x3b676af5	0.0035311554
209	0xbc689ac1	-0.014197052
210	0xbc586602	-0.013207914
211	0xbc72c684	-0.014817838
212	0xbc493044	-0.012279574
213	0x3c3b3848	0.011426993
214	0xbca945d4	-0.02066318
215	0x3b0f23de	0.0021841447
216	0xbb57a1ad	-0.0032902763
217	0x3c1ecf75	0.009693016
218	0xbcb1637b	-0.021653881
219	0xbc351753	-0.011052924
220	0xbbb12d1f	-0.00540699
221	0xbb3a8186	-0.002845855
222	0xbb9bf3a3	-0.0047592684
223	0x38593013	5.1781604e-05
224	0xbc3998f6	-0.011327973
225	0xbab8e002	-0.0014104845
226	0xbba67c6a	-0.0050807493
227	0x3ad3e9d3	0.0016167708
228	0x3b8fdede	0.0043905815
229	0x3c3f7bff	0.011687278
230	0xbb47fd5c	-0.0030516004
231	0x3c4645d1	0.0121016065
232	0x3c19b8fa	0.009382481
233	0xbc1512c9	-0.009098717
234	0xbad6702b	-0.0016360333
235	0x3c44ac7c	0.012004014
236	0xbb3dc0dc	-0.0028954064
237	0x3bdd2be8	0.006749619
238	0xbb4d4e3e	-0.0031327154
239	0xbc6cf02a	-0.014461556
240	0xbb07a10f	-0.0020695364
241	0xbc04940c	-0.008091938
242	0x3c0cd87c	0.008596536
243	0xbbf3d7bc	-0.007441489
244	0xbb00a263	-0.001962804
245	0xbbf2c020	-0.007408157
246	0x3bcbe207	0.006222013
247	0x3c76a332	0.015053557
248	0x3944a82a	0.00018754663
249	0x3c04b1fd	0.008099076
250	0xbbe3fb4b	-0.0069574467
251	0xbc012ff2	-0.007884966
252	0xbb2273bb	-0.002478822
253	0x3b6f34f7	0.0036500075
254	0x3b4c0083	0.0031128235
255	0xbba9eb7e	-0.0051855436

bias f4 [50]
0	0xbca1f329	-0.019769268
1	0x3c42696c	0.011865955
2	0x3c62662b	0.013818304
3	0x3bfef8a2	0.007781104
4	0x3ca1737a	0.019708384
5	0xba86664e	-0.0010253878
6	0x3ccb03f8	0.024782166
7	0xbab3ecb1	-0.0013727156
8	0x3cc0aec5	0.023520837
9	0x3c8d0fee	0.01721951
10	0xbc181285	-0.009281759
11	0xbb026296	-0.0019895188
12	0x3ca002d4	0.019532599
13	0x3ceee5dd	0.029162342
14	0xbbde5da2	-0.0067860642
15	0xbb3749a0	-0.0027967468
16	0x3c9863ed	0.018602336
17	0x3c86c24f	0.016450075
18	0x3c465a8b	0.012106548
19	0x3c832f1f	0.01601368
20	0x3c9e8e94	0.019355096
21	0xbc46225f	-0.012093156
22	0x3c06705f	0.008205502
23	0xbca9ba50	-0.020718724
24	0x3c875586	0.016520273
25	0x3ca6f735	0.02038155
26	0x3c4c6cdc	0.012477126
27	0xbbdd8fd8	-0.0067615323
28	0x3c7f4f3b	0.015582855
29	0x391f058c	0.00015165488
30	0x3c49625d	0.012291518
31	0x3b985692	0.004648992
32	0xbc038da6	-0.008029377
33	0xb73a90bb	-1.1120162e-05
34	0x3c5c2a70	0.013437852
35	0x38dbcd0b	0.00010480926
36	0xbcb8abbb	-0.022542825
37	0x3cd45119	0.025917577
38	0x3c3e1b92	0.011603253
39	0x3c8d6608	0.017260566
40	0x3c99e885	0.018787632
41	0x3ccbf6ab	0.024897894
42	0x3c1e934d	0.009678674
43	0x3cd50d33	0.02600727
44	0x3b1917de	0.0023360173
45	0xb9930803	-0.00028043994
46	0xbbbfb6e2	-0.0058506588
47	0x3c8b3acf	0.016995816
48	0xbc6bcdf6	-0.014392367
49	0x3c6982bc	0.014252361
