models/layout_parts_model_48.pth (torch_old, 980122 bytes, 20 tensors)

weight f4 [3, 6, 5, 5]
000000 33 7e a9 3c e9 55 39 3d b4 64 b4 bc 8e ac 10 bd
       0.02069006 0.045247946 -0.022020675 -0.03532081
000010 a1 fd 19 3d 38 c3 a7 3c 4d 9e ae 3d 63 65 e2 bc
       0.037595395 0.02047883 0.08526287 -0.027636236
000020 14 bb 34 bd 24 7e 20 3d b2 5b e5 3c 31 3e 73 3b
       -0.044123724 0.039182797 0.027997825 0.0037115926
000030 49 7a 93 bd a8 43 93 3d b0 dd e3 bc dc fd a2 3c
       -0.072010584 0.07190639 -0.02781567 0.01989644
000040 15 d8 fc bc e2 3a 09 bd 6c 61 92 bc 73 26 02 3d
       -0.030864755 -0.03350342 -0.01786872 0.03177495
000050 2f d1 17 3c 9c 80 89 bd ad fa a0 bc f0 26 3b bd
       0.009266182 -0.067139834 -0.019650782 -0.04569143
000060 32 58 a0 3c 86 2c d7 bb 37 90 01 3d 90 cb 02 bc
       0.019573305 -0.006566587 0.031631675 -0.007983103
000070 df 7c 1d bc 6e 7f 4e bd 38 60 80 3d f8 25 96 bd
       -0.009612291 -0.050414495 0.06268352 -0.07331461
000080 cf 02 80 bd 62 17 5a 3d 7e 2c b6 bb 0d cf 90 3c
       -0.06250536 0.053244956 -0.005559503 0.017676855
000090 57 84 47 3d cc 4d 63 3d b3 fb f1 3c 27 49 26 3d
       0.048710193 0.055494115 0.029538965 0.040597107
0000a0 ec 91 a5 bd 9b 39 9e 3c e0 80 08 bd 34 a0 86 3c
       -0.08084473 0.019314578 -0.03332603 0.016433813
0000b0 6c 30 7e bc 41 67 93 3d 54 cc 93 ba 4c 1a 21 bd
       -0.015514474 0.071974285 -0.0011276104 -0.03933172
0000c0 6b 7d c3 bc f0 f3 d2 bc 95 06 30 bd 38 49 b1 3c
       -0.023863515 -0.025751084 -0.042975027 0.021641359
0000d0 ee 8a 50 3d 65 7f 8e bb 1b b8 9b 3d 9c cf 01 3c
       0.050913744 -0.0043486827 0.07603475 0.007923033
0000e0 06 81 d3 bc 58 64 88 bd 3e 86 9c 3d ca ec 8e 3c
       -0.02581836 -0.06659764 0.07642792 0.017446894
0000f0 27 b7 3b bd 11 27 44 3c 0b 82 ce 3b 9e 77 96 3c
       -0.045828965 0.011972205 0.0063021234 0.018367585
000100 25 ee 2b bd 6a 98 a1 bb 60 12 b2 ba bb d7 94 3c
       -0.04197516 -0.0049314993 -0.0013585798 0.018169275
000110 2a 3d e3 39 02 07 89 3b 3c bc 28 bd 18 09 d9 bc
       0.00043342385 0.0041817436 -0.04119514 -0.026493594
000120 db 4a d5 3c d2 c3 48 bd 0e 87 31 3d a9 46 ad 3b
       0.02603667 -0.049014874 0.04334169 0.0052879644
000130 5f 75 fa 3b 21 2f b2 3c bc f2 75 bd 24 e3 8d 3d
       0.0076433863 0.021750988 -0.060045943 0.06928089
000140 f2 e4 63 3c 11 ab 91 bd 58 3d ef bc b8 ae 8e 3c
       0.013909565 -0.071127065 -0.029204056 0.017417297
000150 7b 64 7e 3d 85 67 f5 3c 08 42 aa bb 21 7d 8e 3d
       0.062107544 0.029956589 -0.00519586 0.0695746
000160 ef 83 87 bd c9 23 73 bc 18 fc 6d 3d 14 38 74 bd
       -0.06616961 -0.014840075 0.058101743 -0.059623793
000170 da 26 34 3d 50 5b 84 bd b5 d3 9e bb 6d d2 c0 3c
       0.043982364 -0.06462729 -0.004847015 0.023537839
000180 79 a7 b2 3b 6b f7 81 3d ce 0d 82 3d 1f 63 b2 bc
       0.005452093 0.06346019 0.06350289 -0.02177578
000190 77 62 29 bd 81 ee 54 bd 10 0f 0e bb 9c cf 60 3d
       -0.04135367 -0.051985268 -0.0021676458 0.05488549
0001a0 71 89 5c bc 84 63 96 3d 64 da 73 bc 54 e1 b7 3c
       -0.013460503 0.073432 -0.014883611 0.022446312
0001b0 41 5c a5 bc a8 1e 50 3d 2e 3f 01 bd fd 02 8a bd
       -0.020185592 0.050810486 -0.031554393 -0.06738851
0001c0 c9 20 01 bd eb c5 78 bd 74 ca 9b 3d 3e 1d 39 bd
       -0.031525407 -0.060735624 0.07606974 -0.045193903
0001d0 fc 62 15 bc f2 01 b3 3b b1 42 d0 3c ed 4f 78 3d
       -0.009117838 0.0054628784 0.025422426 0.0606231
0001e0 ac 7e b4 3a 7d 6e 49 bb e1 40 59 3c e2 a6 6a 3d
       0.0013770661 -0.0030736022 0.013260097 0.057288058
0001f0 36 ac 9a bc 16 f8 65 3d ec 9c 0d bd 07 0f 2e 3d
       -0.018880945 0.056144796 -0.03457348 0.0424948
000200 86 f3 e2 3c 75 91 96 bc 34 c2 bb bc eb 13 4b 3d
       0.027704012 -0.018379906 -0.022919752 0.049579542
000210 b6 13 87 3d 44 1f 0b bd 79 bb 50 3d f3 b4 70 bd
       0.065955564 -0.033965364 0.050960038 -0.058766317
000220 c6 48 0e bc 1f 40 89 3d c3 4b 87 3d a6 a4 02 3d
       -0.008684343 0.06701683 0.06606247 0.031895302
000230 83 11 f4 3c 8c 38 8c 3d f7 7e 1d bd 56 5d a1 3d
       0.029793506 0.06846723 -0.03845116 0.078791305
000240 26 73 7d 3d 04 2e 98 3b a4 ea 8e bd e3 84 9a bd
       0.061877392 0.0046441574 -0.06978348 -0.075448774
000250 2b 8c 9a bd ca 82 95 3c ae a6 5e bd 2a ec 7c 3d
       -0.07546266 0.018250842 -0.054358177 0.06174866
000260 cb cd 0e 3d bb 19 81 3d 2a 0b 9b bc 6d 7f 14 3c
       0.03486423 0.06303736 -0.018926222 0.009063584
000270 aa 92 13 3d 85 e8 d0 bc 4a ca 8b bd 87 6e 03 bd
       0.03602854 -0.025501499 -0.06825693 -0.03208783
000280 7c 2d 64 3d 87 61 16 bd 0a 9a c1 3c ab 75 45 3d
       0.05570744 -0.036714103 0.023633022 0.04820792
000290 c9 fa 12 3d 5e c2 76 bd 74 d8 0a 3a cb a7 88 bd
       0.0358837 -0.060243957 0.0005296536 -0.06672629
0002a0 db c8 f7 3c 1d 29 f0 3c a2 a0 5f 3c ce 9d 2e 3d
       0.030247143 0.02931648 0.013649138 0.042630963
0002b0 80 d1 d8 bc 36 2c 5f 3d 23 2e 38 bd 20 9e 4f bb
       -0.026467085 0.054485522 -0.044965874 -0.0031679943
0002c0 2d 30 24 3c 28 db 1c 3d e8 06 1a 3d d0 47 cd bc
       0.010021252 0.03829494 0.037604243 -0.025058657
0002d0 9e 7c 73 3c 09 e9 64 3c a0 6f 36 bd 45 b6 56 3d
       0.014861254 0.013971576 -0.044540048 0.05241992
0002e0 43 31 e3 3b f6 b3 45 bc aa 9d 84 3c 61 03 14 bd
       0.0069333627 -0.012066832 0.016188461 -0.036136035
0002f0 a8 4f c2 bc 1c 68 14 3b 32 1c 68 bd a9 3c 83 bd
       -0.023719624 0.0022645062 -0.056667514 -0.064080544
000300 96 ad 9a bd 38 3b 16 3d 88 d7 72 ba d1 f3 39 bd
       -0.0755264 0.03667757 -0.0009263684 -0.045398537
000310 53 a6 7d bc b5 86 33 3d b6 da 25 3a 27 ff 95 bd
       -0.015481549 0.04382964 0.0006326841 -0.07324057
000320 25 84 f4 bc 9e 8a 4c bc c6 35 de bc 5a f6 68 3d
       -0.029848168 -0.012484221 -0.02712525 0.056875564
000330 36 35 61 bd bc 77 6b bd f1 e5 8b 3d 00 26 c0 bc
       -0.054982387 -0.057487234 0.06830967 -0.02345562
000340 a4 0f 68 bd 6f c1 e8 bc d8 48 f3 3c dc 50 41 bd
       -0.05665554 -0.028412549 0.02969782 -0.047196254
000350 a9 37 93 3d af d2 12 bd 71 b1 8b bd 3a 73 4b bc
       0.07188351 -0.035845455 -0.06820954 -0.012417609
000360 f8 1e bb bc 37 23 75 3b 70 cf 0f bd 25 97 8b 3d
       -0.022841915 0.0037405023 -0.035109937 0.06815938
000370 fa 40 37 3d 07 72 07 bc a7 75 0e 3c 5c fa 7b 3d
       0.0447397 -0.008266932 0.008695043 0.06151806
000380 42 4a 0b 3d a3 7f 4a 3c 22 f1 9f ba 53 e8 10 bd
       0.034006365 0.0123595325 -0.00122026 -0.03537781
000390 13 48 42 3d 78 b2 73 bc 65 bf b7 bb 49 0b a6 3c
       0.047432017 -0.014874093 -0.005607533 0.020269053
0003a0 41 d5 f2 bc 0b 59 9e 3d 92 2a 01 3d 6b 35 06 bd
       -0.029642703 0.07731827 0.03153474 -0.032765787
0003b0 3c 3a 2f 3d 88 74 3e 3d 32 be b6 bb 8d 6d 7f 3c
       0.042780146 0.04649785 -0.0055768723 0.015590084
0003c0 a4 99 b2 bb a1 99 0a bc 6c ba 82 bd a5 16 4e bd
       -0.0054504443 -0.00845948 -0.063832134 -0.050314564
0003d0 26 ad 6c bd d1 df 9d 3c 00 47 3e 3d 65 f6 0b 3d
       -0.057782315 0.019271763 0.04645443 0.034170527
0003e0 ec 24 ea bc c5 3e 57 3d 0a 0f 98 3d be bf 88 bc
       -0.028582059 0.052550096 0.074247435 -0.016692992
0003f0 d1 00 19 bc d7 00 0c 3c 5f c1 7e 3d 1c 19 eb bc
       -0.009338574 0.008545122 0.06219613 -0.028698497

bias f4 [6]
000000 26 ea e7 bc a5 e4 48 3b f9 30 90 3d 72 c6 7a 3c
       -0.028309893 0.003065386 0.07040591 0.015306102
000010 b5 7f 88 3d 54 2d 8c bd
       0.06664983 -0.06844583

weight f4 [6, 16, 5, 5]
000000 78 c7 2f 3d 70 6b c1 bc df 30 ba 3b 1e 3c 24 3c
       0.042914838 -0.0236108 0.0056820954 0.010024099
000010 67 43 53 3c a9 46 a3 bb 68 c9 44 bc 01 6f 48 bc
       0.012894488 -0.0049827886 -0.01201091 -0.012233497
000020 3e 7b bf bc 6b a8 95 3c b4 52 5e ba 20 13 ef 3c
       -0.023374196 0.018268785 -0.00084809517 0.029183924
000030 30 e7 19 3c 11 f3 90 3c 54 e4 c0 ba 20 47 2b bc
       0.009393498 0.017694028 -0.0014716485 -0.010453969
000040 92 ee b8 bc da 8c ef bc e4 0c 29 3d fd 4b 57 3b
       -0.022574697 -0.029241968 0.04127206 0.003285169
000050 ea d6 11 bd 71 c3 3b 3d 0f 63 74 3a 9d 67 38 bd
       -0.03560535 0.045840684 0.0009322622 -0.04502069
000060 8e e8 91 bc d4 f5 40 bd 57 1a d1 bc 69 3d 18 bc
       -0.017811086 -0.04710944 -0.025525255 -0.009291985
000070 47 29 01 bb ea f2 86 3c 39 8a f7 3c c8 ee 5c bd
       -0.001970844 0.016473252 0.030217277 -0.053938657
000080 23 3b b8 3c e2 c9 01 3d 9c 4e 59 bb 39 07 9c bc
       0.022489136 0.03168667 -0.0033158427 -0.019046413
000090 48 65 53 bc 16 49 0a 3c a8 69 fb bc 3b dc fd 3c
       -0.012902565 0.008440277 -0.03069003 0.030988803
0000a0 0e 71 42 bc 69 a5 04 bd cc 67 ec 3c a0 22 f4 3b
       -0.011867775 -0.03238431 0.028858088 0.0074504167
0000b0 c7 db 11 bd 2b c0 1e bd 67 ea 19 3d 21 7b 5d bc
       -0.035609987 -0.038757484 0.03757706 -0.013518126
0000c0 28 04 96 3c a6 6f b5 bc c3 6e 32 bd e7 20 c6 3b
       0.018312529 -0.022147965 -0.04356266 0.0060464027
0000d0 a0 7a 5f 3d 6e 7b f0 bc 43 a9 85 bc dc 51 61 3d
       0.054560304 -0.02935573 -0.016316062 0.055009708
0000e0 e2 c5 90 3b ca 80 7b 3d 48 73 5e 3d 67 8a 95 3c
       0.0044181207 0.06140212 0.05430916 0.018254472
0000f0 4d 59 6b bc 0e 40 3a 3d 26 dc 84 3d e9 0f 10 3d
       -0.014364553 0.045471244 0.064873025 0.035171423
000100 f8 79 dd 3c 6c 73 87 3c 80 31 5a 3d 58 7f 06 bd
       0.027035698 0.01653453 0.053269863 -0.03283629
000110 b0 b5 ed 3b e7 63 b2 3c c6 2d ab bc c4 c2 45 bc
       0.007254325 0.021776153 -0.02089585 -0.0120703615
000120 d1 ec 0d bd 09 23 a3 bc cf 6b b0 ba a3 a6 6f ba
       -0.034649674 -0.019914167 -0.0013459864 -0.0009141957
000130 d0 5e 18 bb 05 09 66 3c cb 6e 6a bd ee 71 15 bd
       -0.0023249872 0.014040236 -0.057234567 -0.036485605
000140 20 a3 51 bc 41 5e 24 bd a5 e0 d9 bc ce 0f 76 bc
       -0.01279524 -0.04012895 -0.026596377 -0.015018417
000150 ca 04 49 bc 1a 33 4f 3c 79 2b c5 bb 91 02 d8 3b
       -0.012269208 0.012646461 -0.0060171452 0.006592103
000160 c4 17 d1 bb aa 9d 3a 3b 53 23 1d bd d9 3f 05 bd
       -0.006381007 0.0028475323 -0.038363766 -0.032531593
000170 c7 30 5a bd 04 eb e4 bc a1 73 ba bb 4e 62 d1 3c
       -0.053269174 -0.027944095 -0.0056900536 0.02555957
000180 d3 e9 65 bd 4e 13 49 3c 33 5d 00 bd 54 a4 f0 bc
       -0.056131195 0.012272669 -0.03133888 -0.029375233
000190 d9 27 41 bc 16 53 37 bd 50 05 58 ba 34 e7 35 3d
       -0.011789286 -0.04475697 -0.0008240538 0.044409946
0001a0 4c 23 16 bd e5 fd 05 3d 31 22 fd bb ab a4 c6 bc
       -0.036654755 0.032712836 -0.007725023 -0.024248442
0001b0 c1 e0 ea 3a 50 24 fe bc 3a 44 9e 3a b7 ac 1c 3c
       0.0017919765 -0.031023175 0.0012074776 0.009562663
0001c0 45 05 b9 b9 94 e3 27 3d 45 1a 29 3d 8f 01 41 3c
       -0.00035289876 0.04098852 0.04128482 0.011780157
0001d0 66 63 01 bd 6d 3b 6b bc 13 d5 8b 3c 6d 14 5b 3c
       -0.031588934 -0.01435743 0.017069375 0.013371569
0001e0 4f ce 9b bc dd 8e eb 3c db 6d 2b bb 6b 1a ba 3b
       -0.019019274 0.028754646 -0.0026158008 0.005679419
0001f0 89 d5 af bc 3c ba 10 bd e3 df 68 3d 65 ce 3e 3d
       -0.021464126 -0.035333857 0.05685414 0.046583552
000200 a9 69 a5 bc 8b 86 2d 3d ee 4e 07 3d ee d0 92 bc
       -0.020191984 0.04236464 0.033034258 -0.017921891
000210 cf 7a e7 bb e9 c8 af bc 5d b0 58 3d 07 4a f5 3c
       -0.0070642005 -0.021458106 0.052902568 0.029942526
000220 51 ae a4 bb 48 5a be 3c 3b b5 eb bc 6a 98 87 bc
       -0.005025663 0.023236409 -0.02877294 -0.016552169
000230 a9 75 0d 3b 42 70 06 bc ba 2d eb 3b 59 72 80 3c
       0.0021585023 -0.008205475 0.007177082 0.015679525
000240 02 07 f6 3c 14 2e d7 3c 2b c1 13 bd 61 70 87 3c
       0.030032638 0.026267089 -0.03607289 0.016533079
000250 96 83 27 bd ff 1d 35 bc 58 89 20 3d 63 b6 40 3c
       -0.040896975 -0.011054515 0.03919348 0.011762234
000260 95 08 21 bb a8 7e ba bb d9 5f cc bc 0b 20 d8 bc
       -0.0024571766 -0.005691368 -0.024948047 -0.026382467
000270 86 9b 6f 3c a1 34 dc 3b 91 14 dc 3c eb 15 e6 3b
       0.014624482 0.006720141 0.026865276 0.007021656
000280 0b e4 b2 bb ec 73 81 3c 0d 2a e7 ba 7d fe da 3c
       -0.0054593137 0.015802346 -0.0017636433 0.026732678
000290 2a d8 09 3d c3 57 ae bb ef 78 1e 3d 4b d9 06 bd
       0.033653416 -0.0053205206 0.03868955 -0.03292207
0002a0 e5 1c a8 3b 4a f5 82 3b f2 39 b7 bc 3b dd 2c 3b
       0.0051303976 0.003996526 -0.022366498 0.002637698
0002b0 61 20 0d 3d 7d 81 1f bd f5 f8 f6 3c 12 2d ce b8
       0.034454707 -0.03894185 0.030148009 -9.8312405e-05
0002c0 0e 07 cc 3c 23 d4 d1 b9 4d b0 29 3d 28 1d 34 3d
       0.024905708 -0.0004002164 0.0414279 0.043973118
0002d0 1e 0d 38 3c 46 ce d3 3c ec 3e b6 3c b5 b0 cb bc
       0.011233596 0.025855195 0.0222468 -0.024864534
0002e0 75 46 4b 3c 8e de 86 3b 0f 05 4b 3d 76 8d 74 3d
       0.012406935 0.004115886 0.04956537 0.05970522
0002f0 4f ed 06 3d b4 95 aa bb a5 b1 77 3c 22 52 54 bc
       0.03294116 -0.0052058343 0.015118037 -0.012959035
000300 ff 87 03 bd 4a 45 bb bb 3a d1 5d bc a4 7c 47 3c
       -0.032112118 -0.005715047 -0.013538653 0.012175713
000310 cc 8b 13 3b 84 91 c4 bc 1b 92 1a bd 88 ce ea 3b
       0.0022513745 -0.023995169 -0.037736993 0.0071657337
000320 8d 1d 77 3c 85 5c 26 3c 06 1c a9 bc ae 5c 15 bd
       0.015082729 0.010153894 -0.020643245 -0.03646534
000330 49 c6 b4 bc 20 f6 be bb 4e 43 a6 3c 4d 92 29 3c
       -0.022067206 -0.00582768 0.020295765 0.010349822
000340 63 7a 3a 3b 0f 6b 4f 3c ab f8 47 3c c8 c9 31 bd
       0.0028454296 0.012659802 0.012205283 -0.043405324
000350 9d 0b ba 3c 1c a8 14 bd fe 32 39 bd 02 f5 ca 3c
       0.022710616 -0.036293134 -0.045214646 0.024775032
000360 bb f8 78 bd 70 3a 85 3b fe 6e ef bc 74 25 ab b9
       -0.060784083 0.004065804 -0.02922773 -0.00032643566
000370 52 93 52 3c 5f 45 34 bd 58 b5 17 bc 72 0c a3 3c
       0.012852507 -0.04401147 -0.009259544 0.019903395
000380 7f 1c 1b 3c b1 8d 29 bd 77 c3 97 bc 88 93 25 3b
       0.009467243 -0.041394893 -0.018525822 0.0025264937
000390 a3 38 f2 3c a1 35 1b bc a8 5c 97 3c c6 80 4e 3c
       0.029568022 -0.009473235 0.0184768 0.012603944
0003a0 18 4c ee bb b9 ca f8 bc 0b 5a a6 bc c6 61 e3 b9
       -0.0072722547 -0.030370103 -0.020306608 -0.0004336966
0003b0 12 07 ef 3c 07 8c e4 3c 68 61 55 3a ec 78 66 bb
       0.029178176 0.027898801 0.000813982 -0.003516729
0003c0 d5 9a ed 3c 71 cc fb bc 90 ab b5 bc d6 cb a0 3c
       0.029004494 -0.030737134 -0.022176534 0.019628447
0003d0 9a 1e ff bc e8 46 a0 3c d4 a8 ec bb 27 bf 2b 3b
       -0.031142522 0.01956506 -0.0072222743 0.0026206465
0003e0 82 1d 6b bc b2 d6 e6 3c 3f 5b b2 bc d2 78 12 3d
       -0.014350297 0.028178547 -0.021772025 0.035759754
0003f0 1a 50 16 3d 5d 1b 5d 3c 64 a4 37 3b 17 57 f0 3c
       0.036697485 0.013495293 0.0028021568 0.029338403

bias f4 [16]
000000 20 f6 fd bc 18 0e 40 3c 33 a6 aa bc 57 a4 95 b9
       -0.03100115 0.01172211 -0.020831203 -0.00028541937
000010 e1 fc a9 3c 9b 95 26 bd 52 85 1a bd 86 50 50 bb
       0.020750465 -0.04067002 -0.0377248 -0.0031786277
000020 4e 47 46 3d b8 29 4d bb 76 01 26 3d 0b 14 45 3b
       0.048407845 -0.0031305384 0.040528737 0.003007176
000030 4b 00 c0 3b 5a 8c 2f 3d 8b 6f d8 3c 69 7d ee 3c
       0.00585941 0.04285846 0.026420375 0.029112535

weight f4 [16, 25, 5, 5]
000000 3d a4 7e bc f6 85 0c 3c 68 c2 05 3d 8a 88 04 bd
       -0.015542087 0.008576861 0.032656103 -0.032356776
000010 d7 a2 f2 3c cf e4 03 3b 98 c1 c2 bc 57 d5 8c ba
       0.029618664 0.0020125394 -0.023773953 -0.0010744733
000020 1f e6 7c bc 86 a4 63 3c b5 b6 0e bd 6b 3a 17 bc
       -0.0154357245 0.013894206 -0.03484221 -0.0092302365
000030 42 96 6f 3c a7 10 1b bd d8 25 85 3c ed 9e c2 bb
       0.014623227 -0.037857678 0.016253397 -0.0059393556
000040 76 c8 9f bc 50 8c b9 bc 28 31 ae bc 45 82 e7 3b
       -0.019504767 -0.022649914 -0.021263674 0.00706509
000050 85 aa b2 3c 7c ce d0 bb 90 67 11 bd ff ab 99 3c
       0.021809826 -0.006372271 -0.035499156 0.018758772
000060 80 16 95 bc d0 56 a0 bb 2f bb 93 bc 87 09 11 3b
       -0.018199205 -0.0048931614 -0.018033592 0.0022130923
000070 00 fc 32 bc 45 ca 5c 3c 41 9a b5 3c 4d c2 d0 3b
       -0.010924339 0.013475959 0.02216828 0.0063708187
000080 43 d0 36 3b 52 5b 92 3c 4e 87 92 3b a9 ba 9c 3c
       0.002789513 0.01786581 0.004471696 0.019131975
000090 cf c2 bd bc d7 ca a8 bc 20 f2 fa 3b 6e ff 67 bc
       -0.023164181 -0.020604534 0.007658258 -0.01416002
0000a0 ad 2f e8 3c 6c dd 2a bc ba 5d db 3c dc 2d c5 bc
       0.028343046 -0.010428768 0.02677809 -0.024069719
0000b0 85 6c c5 3c 78 4f 84 3c b3 e8 80 3c 15 67 dc bc
       0.024099598 0.016151175 0.01573596 -0.026904622
0000c0 e7 f7 42 bb 43 20 57 3c 6c 2e 01 3d 31 f9 c9 3c
       -0.0029749812 0.01313025 0.031538412 0.024654957
0000d0 58 24 66 bc f5 0a 8a 3c d9 b2 40 bc ff dd b1 3b
       -0.014046751 0.016850928 -0.011761391 0.0054280753
0000e0 ea 3a 33 3c 25 d0 6f 3c 84 eb cc bc cf 05 ec 3c
       0.010939339 0.014637028 -0.025014646 0.028811364
0000f0 a3 58 b4 bc 8c be 93 3c 89 10 b4 bc 3b af 4a bc
       -0.022014922 0.018035196 -0.02198054 -0.01237088
000100 6e 0a e2 3c bf 6d 59 3c ea b7 13 3c 57 47 c9 3c
       0.027592864 0.013270794 0.0090160165 0.02457015
000110 ba 5f 69 bc b8 1f 43 3c f7 02 22 bc e5 7a 38 3c
       -0.014244014 0.011909418 -0.009888402 0.011259769
000120 6b 10 f1 bc 86 e3 fb bc cf 8b 8a 3c 46 e7 c6 3b
       -0.029426774 -0.03074814 0.016912369 0.0060700504
000130 1f fe 38 bc b8 da d4 bc 48 1c 12 3c bc 5f 7a 3b
       -0.011291056 -0.0259832 0.008917876 0.0038204035
000140 f1 3e 0e 3c a2 97 a9 3c ab 20 02 bd b6 33 af bc
       0.008681999 0.020702187 -0.031769436 -0.021386962
000150 e4 e6 bb bc 39 08 09 bd 03 e9 08 bc 10 ae a0 bc
       -0.022937246 -0.033455107 -0.008356336 -0.01961425
000160 2a 6d c6 bb 5d 9e 4c bb fd af 6e 3c aa 4b dc 3c
       -0.006055494 -0.0031222322 0.014568326 0.026891548
000170 a1 90 f9 3a 4d 9b 96 3c e0 64 8b 3c 73 cb ee bb
       0.0019040295 0.0183846 0.017015874 -0.0072874366
000180 c1 9c 4d bc 44 10 5d bc b5 f2 07 3c 75 6d 32 3c
       -0.01254958 -0.013492648 0.008297612 0.010890354
000190 95 80 15 3c 2d 38 91 ba 4f dc d8 3c 7a 2e 9d bc
       0.009124895 -0.0011079364 0.026472239 -0.0191872
0001a0 1a 46 4f ba de 01 80 3c cc 12 fa 3c 17 3c c6 3b
       -0.0007906869 0.01562589 0.030526541 0.0060496437
0001b0 0d 0c cb 3b 14 12 60 bc 72 27 1f bc a3 70 c8 bc
       0.006196505 -0.013676185 -0.009713994 -0.024467772
0001c0 f0 22 07 3d 68 0a c0 3c 4f d8 6f bc 4c 19 f5 3b
       0.032992303 0.023442462 -0.014638974 0.0074798223
0001d0 01 c1 0a 3d 64 d7 c3 bc f3 a7 81 bc cb 1a fc 3c
       0.03387547 -0.023906417 -0.015827155 0.030774495
0001e0 7c b5 9e 3c 77 f2 99 bc 8c 3f 0c 3d 46 fb 6f bc
       0.019373648 -0.018792374 0.03424029 -0.014647311
0001f0 95 97 1a bc c6 b1 b7 bc 8a 71 89 bc a6 42 ad bc
       -0.009435554 -0.022423636 -0.016777772 -0.021149945
000200 fe 5a 11 bc e8 4c 73 bb 65 4f 72 bc 43 e6 0d bd
       -0.008871792 -0.0037124697 -0.014789437 -0.034643423
000210 01 eb b4 bc 85 2f 19 bc be 0d 25 3c eb 32 9e bc
       -0.022084715 -0.009349708 0.010074077 -0.019311389
000220 ed 77 06 bd e4 0b 81 bb 47 39 1a bc 3e 39 da bb
       -0.032829214 -0.003938185 -0.00941307 -0.006659656
000230 c3 b5 97 3b bd d3 b0 3b 95 cf 12 bc 14 87 35 3c
       0.004629822 0.005396335 -0.008960624 0.011079568
000240 98 29 7f 3c 56 62 09 3d 36 c8 db 3c d4 9c 3f 3b
       0.015573882 0.033541046 0.026828866 0.0029237764
000250 63 56 aa 3c 7f 92 c8 3c b6 fd 1d bc 79 17 02 3d
       0.020793146 0.024483917 -0.009643009 0.031760667
000260 cc 23 af 3c eb 40 c7 bc 41 aa 77 3c c3 d1 f0 bb
       0.021379374 -0.024322947 0.015116275 -0.0073492243
000270 63 00 f0 3c ff 8d ed 3a 1d 44 9d 3c f1 88 e4 3c
       0.02929706 0.0018123983 0.019197518 0.02789733
000280 59 55 ce 3b 3f ad 86 3c 11 73 ad bb 5f b8 ce 3c
       0.0062967953 0.016440032 -0.005293258 0.0252344
000290 42 f1 b5 bb 68 bb e6 bb de 8a 83 3c 9a 71 6e 3b
       -0.005552442 -0.0070413835 0.016057428 0.003638363
0002a0 06 d9 78 39 a1 e8 de bb 4e 5d bb bc e4 0e 01 bd
       0.0002373197 -0.006802634 -0.02287164 -0.03150834
0002b0 2d e0 10 bd b1 18 16 bd 0b 33 a8 3c 6c 0c bd 3a
       -0.03537004 -0.03664464 0.020532152 0.0014423258
0002c0 8f a2 b0 3c 42 fe 51 3c 2a 3e 00 bd c5 0d d7 bb
       0.021561889 0.012816967 -0.031309284 -0.0065629208
0002d0 a5 ae b4 bb de fa 6f 3c a3 26 5f 3c 6b 64 21 bd
       -0.0055139833 0.014647214 0.013620052 -0.039402407
0002e0 89 a8 db bc eb 37 aa 3c c6 52 83 bc f5 6c 16 bd
       -0.026813762 0.020778617 -0.01603068 -0.036725003
0002f0 7c e2 90 3c 04 5c 91 bb ea 96 e4 bb 53 64 da bc
       0.017686121 -0.004436018 -0.006975998 -0.026659166
000300 cf da 86 bc 5b 52 0a bc 2a e0 ff bc fd 58 b4 bc
       -0.016461758 -0.008442487 -0.03123482 -0.02201509
000310 03 82 d2 3c 91 69 b2 bc b8 97 ab 3a 35 19 a8 3c
       0.02569676 -0.021778854 0.001309148 0.020519832
000320 53 60 0b bc 35 76 af bb 02 ab b4 bc 5a 4d 8c bc
       -0.008506852 -0.0053546675 -0.0220542 -0.017126728
000330 f5 68 56 ba 17 f7 a3 bc 08 ef cc 3c 1d 79 68 3b
       -0.0008179092 -0.020015283 0.025016323 0.003547258
000340 4a c1 41 bc b2 e6 b4 3b 4d a9 c3 bc 87 17 12 3d
       -0.011825869 0.005520665 -0.02388444 0.03566697
000350 b4 ab 2d 3b 3b e2 89 3c 47 f0 ca 3c 86 ad 86 3c
       0.0026500048 0.016831508 0.024772776 0.016440164
000360 31 f6 b4 3c f4 bf 80 bc b5 d3 e9 b9 d7 e1 98 3b
       0.02209005 -0.01571653 -0.00044598957 0.004665594
000370 54 b7 1d 3c f0 4c 59 3b 98 f7 0f 3d 9e 41 cd bb
       0.009626228 0.003315743 0.035148233 -0.0062639257
000380 96 ac bb 3c 15 c6 8c bc 29 bb 99 ba 83 d2 f3 3c
       0.022909444 -0.017184297 -0.0011728752 0.029763466
000390 a5 80 0b bd b5 09 e5 3c 90 3f 02 3c 35 92 f1 3c
       -0.03405823 0.02795873 0.007949725 0.029488662
0003a0 ff 5c 5a 3c 1f b6 1b bc 71 be 43 bc 33 5c f7 bb
       0.013327836 -0.00950387 -0.01194726 -0.007548833
0003b0 24 29 af bb 14 0b 42 bc a2 41 80 3c 39 0b b5 3b
       -0.0053454805 -0.011843462 0.015656296 0.0055250195
0003c0 41 89 c8 3c 1d 92 a4 3a aa fa 4a bc 88 52 19 bc
       0.02447951 0.0012555752 -0.0123888645 -0.009358056
0003d0 9d 91 07 bd df cf 82 bc 30 a3 03 ba 01 6c bc 3c
       -0.033097852 -0.015968261 -0.000502157 0.023000719
0003e0 2f 8b 95 bc fc ac 7c bc b9 1e b0 bb 60 9e 9c bb
       -0.018254844 -0.015422102 -0.005374756 -0.004779622
0003f0 86 fd 60 bc 51 34 b4 3a c2 a2 3d 3b f4 49 cf b9
       -0.01373232 0.0013748502 0.0028936123 -0.00039537216

bias f4 [25]
000000 71 dc a3 3c 62 b1 27 3a 2f d4 d4 3c cd 63 2e 3c
       0.020002576 0.00063969765 0.025980083 0.010643912
000010 50 7d 27 bc d5 ce 4c bc 78 d1 f5 3c c3 d5 1d 3d
       -0.010222748 -0.0125004845 0.030007109 0.038533937
000020 63 19 79 3c 11 a7 28 3d 38 ad 1a bc 67 b0 ec ba
       0.015203807 0.041174952 -0.009440713 -0.0018057943
000030 68 18 12 3d 48 23 b4 3b bb 5d 26 3d 6c cd 41 3c
       0.035667807 0.00549737 0.040616732 0.011828762
000040 73 05 03 3d ba d2 c1 3c 6d 00 7e bc b1 ea 33 bc
       0.03198762 0.023660053 -0.015503031 -0.010981248
000050 01 24 04 3c 10 e0 d6 3c ad 7b a8 bc 54 7b 77 3c
       0.008065225 0.026229888 -0.020566786 0.015105087
000060 b0 38 26 3d
       0.040581405

weight f4 [25, 50, 5, 5]
000000 25 64 7c 3c d6 36 f2 bb 78 f8 85 bc 29 40 da 3c
       0.015404736 -0.007391791 -0.01635383 0.026641922
000010 fe 4e 78 3b 6d 88 cb 3c 13 33 9a bc a6 b2 d9 3c
       0.003788888 0.024845326 -0.018823182 0.026574444
000020 19 65 df 3c 9c 2d 30 3c 8e 29 f5 3c f9 0c f4 bb
       0.027269887 0.010753062 0.029927041 -0.0074478355
000030 3a 6e 99 bc db 73 19 3c 3b ad 9a 3c c4 51 b4 bb
       -0.018729318 0.009366001 0.01888143 -0.0055029113
000040 ba 16 42 bc ba 36 45 3a b7 5e 8c bb 52 a4 dd bb
       -0.011846239 0.00075231085 -0.004283752 -0.0067639733
000050 99 65 16 3b 2f 15 c1 3b 1e 83 39 3c 89 85 0b 3c
       0.002294874 0.005892418 0.011322765 0.008515724
000060 38 8c a2 3c bb 66 03 bc 90 32 be bc 77 97 74 bc
       0.019842252 -0.008020098 -0.02321747 -0.01492869
000070 15 f3 67 bc 10 fc 71 3c 4c 15 f0 3c 26 f1 a3 3c
       -0.014157076 0.014769569 0.02930703 0.02001245
000080 7d 5e f6 3c b3 b2 8b bc 56 97 cd 3c f3 b6 4b 3c
       0.030074352 -0.017052984 0.025096577 0.012433755
000090 d8 db cf 3c c7 22 85 bc 63 36 fc 3c 0c b5 ac bb
       0.025373384 -0.016251935 0.030787652 -0.005270606
0000a0 b2 05 7a 37 ee a0 9a 3a 3d d8 ce 3c 47 a2 39 3c
       1.4902487e-05 0.0011797228 0.025249595 0.011330194
0000b0 7e 82 8b 3b 6f ac 04 3c 4e 78 57 3c 8c a8 60 3c
       0.0042574992 0.008097752 0.0131512415 0.01371206
0000c0 43 66 22 bc aa ba 03 bc ad a0 fb 3c 79 ac e3 ba
       -0.009912076 -0.00804011 0.030716265 -0.0017370126
0000d0 fa 00 a8 3b 4b f7 ae bc fb e2 b4 bc 7a d0 b1 3c
       0.0051270695 -0.021358153 -0.022080889 0.021705855
0000e0 3c b9 74 3c 86 07 f4 3c 98 5b 1e 3c 13 de 85 3c
       0.014936741 0.029788744 0.009665392 0.016341245
0000f0 ee db 99 3b 53 77 13 bc c3 e4 28 bb b1 a6 d9 3c
       0.004695407 -0.009000617 -0.0025771118 0.026568742
000100 8f 7c 46 3b 24 1e d5 3c 06 61 28 3c 25 41 a1 bb
       0.0030286645 0.026015349 0.010277038 -0.004921096
000110 45 20 36 bc 78 4c 8a 3c 9a 60 b0 3c 91 4f 1b bb
       -0.011116092 0.016882166 0.021530438 -0.0023698548
000120 b0 47 60 3c bb 54 74 bb 5a 9b e3 3c 01 31 ad bc
       0.013688967 -0.0037281949 0.027784038 -0.021141531
000130 76 99 98 b9 73 53 d0 3c d0 9e d2 bb cd 18 aa 3c
       -0.00029106037 0.025430417 -0.0064276233 0.020763779
000140 e1 f1 6b 3c 40 46 d7 3c 12 9f a3 3b e2 47 6b 3a
       0.01440093 0.026278615 0.004993328 0.000897525
000150 61 f7 52 ba be ef ba bb d4 ac a4 3b 6f e3 29 3c
       -0.00080477266 -0.005704849 0.0050254855 0.010369166
000160 8c f5 4e 3b 6e 1a 55 3c 47 73 74 3c fb 56 25 bc
       0.0031579463 0.01300679 0.014920062 -0.010091539
000170 ae ec a0 bc 7d 7b a4 3b b4 8f 49 3c bc d7 64 3c
       -0.019644108 0.0050196038 0.012302328 0.013967451
000180 4e 12 7e 3a 4e 5c 58 bc 2f e6 59 3c 68 c0 0e 3c
       0.00096920587 -0.013205601 0.013299509 0.008712865
000190 6c 96 20 3b c0 40 15 3c 69 c8 2f 3c 53 e0 a2 3c
       0.002450372 0.009109676 0.010728934 0.019882357
0001a0 e5 bd 36 3c 56 e5 20 3c a8 b5 16 bc 90 66 02 3c
       0.011153673 0.009820303 -0.009198584 0.007959023
0001b0 71 a2 cc 3b 85 80 3a 3c 1a 53 94 bc 83 59 ad bb
       0.0062449505 0.0113831805 -0.018106032 -0.0052902116
0001c0 62 04 7a 3b 0d 7b 46 3c b3 57 10 3c ac 9c b7 3a
       0.0038149585 0.0121142985 0.008809972 0.0014008484
0001d0 7c ca 9b bb 13 b8 a9 bb fc 74 4b 3c d7 28 47 3c
       -0.0047543626 -0.005179414 0.012418028 0.012155733
0001e0 7f 99 62 3b 7e 7d 65 bb ac f7 8f 3b de 28 66 bb
       0.0034576354 -0.0035017426 0.0043935385 -0.0035119574
0001f0 84 f4 ae 3b ec d6 c4 3c 0a 8f cc 3c 62 4c 3a 3b
       0.005339207 0.024028264 0.02497055 0.0028426875
000200 48 60 de 3c df 1b e4 3b 4b 8a 30 3c 38 d8 c8 3b
       0.02714552 0.0069613303 0.010775159 0.006129291
000210 e7 77 65 3c 2a 50 30 bc c9 b9 1b 3c c7 21 95 bb
       0.014005638 -0.0107613 0.009504744 -0.0045511457
000220 e3 b1 d7 bb 46 4b 81 3b f2 ea 87 bb d8 6a 5b bc
       -0.006582485 0.003945741 -0.0041478807 -0.013392173
000230 18 e8 12 bc 2f 72 16 bc 8f 9c 76 3c 50 41 d8 bb
       -0.008966468 -0.009182497 0.015051975 -0.0065995827
000240 d6 c5 85 3c ae 61 3b ba fb 8d f2 3c 0b 93 c7 3a
       0.016329687 -0.00071480393 0.029608717 0.0015226317
000250 1c 52 d4 3c 3b 20 79 3c 10 4d 9a 3c 6a bf ae bb
       0.025918059 0.015205438 0.018835574 -0.005332877
000260 7f d6 17 3b ea eb ee 3c 92 a4 d2 3c 68 90 b5 bc
       0.002316862 0.029165227 0.025713239 -0.022163585
000270 8a 38 b8 3c 03 af df 3c 99 d0 89 3c 6c 60 2f 3c
       0.022487897 0.027305132 0.0168231 0.010704141
000280 79 96 90 bc 47 7b a3 3b 31 f9 c9 3c 00 13 e8 3c
       -0.017649876 0.004989061 0.024654957 0.028329372
000290 f7 ae 70 3c 17 62 88 3c 74 4e ad 3c 7b df f1 3c
       0.014690152 0.016648335 0.021155573 0.02952551
0002a0 24 44 be bc 76 7c 5c 3c 15 6c ee 3b b4 d4 76 3c
       -0.023225851 0.013457408 0.007276068 0.015065361
0002b0 ca c7 a6 bc dd 16 c7 bc ec fd 5d bc 61 8d cd 3b
       -0.020358939 -0.024302894 -0.013549309 0.006272957
0002c0 8c 1b 2c bc 14 ca 63 bc eb e6 8a 3b 95 3c 64 3c
       -0.010504615 -0.01390316 0.0042389533 0.0139304595
0002d0 69 6e cc 3a 9b f2 55 3c 58 d5 81 3c e3 5d 39 3b
       0.001559687 0.01305833 0.0158488 0.002828472
0002e0 3d 03 55 bb 01 3b 65 3c a5 4a 4c 3c 5d 47 87 3c
       -0.003250315 0.013991118 0.0124689685 0.01651352
0002f0 17 51 ad bb c3 35 17 bc 72 c2 40 3c 6a ed cb bb
       -0.0052892077 -0.009229126 0.011765109 -0.0062233703
000300 fe 0a 82 bb 6f 93 04 3b 38 2a 85 39 0b 47 b7 3c
       -0.0039685955 0.0020229479 0.00025399192 0.022372743
000310 75 b9 fe bb ab 9f 50 3c bc 17 bc 3a d3 6d 2c 3c
       -0.007773573 0.01273338 0.0014350335 0.010524231
000320 dd 3c 77 bc 23 e6 72 bc 8a 30 f0 b9 3e ff 33 bc
       -0.0150901945 -0.014825377 -0.00045812532 -0.010986147
000330 6d 35 47 3c 35 4e c4 3c 83 85 3b 3c 76 95 89 3c
       0.012158734 0.023963073 0.011445406 0.016794901
000340 80 f0 53 bc f1 a2 ac 3a fa ce 08 bb a1 24 b1 bc
       -0.012935758 0.0013171119 -0.002087532 -0.021623911
000350 20 7f 8a 3b 85 0c ae bb 45 7d 02 bc b2 6f 93 bc
       0.0042265803 -0.005311551 -0.007964437 -0.017997596
000360 d8 d8 64 bc b2 20 c7 bc 41 93 3b 3c 33 9a ce 3c
       -0.013967715 -0.024307583 0.011448682 0.025220012
000370 31 5e 1d 3c 5e 27 5e bc f6 a1 87 bb 61 1b d8 3c
       0.0096049765 -0.013559191 -0.0041391803 0.026380243
000380 d1 1b 49 bc b1 de 55 3c e6 b3 2e 3c 8e 9b 38 3c
       -0.012274698 0.013053582 0.010663008 0.011267556
000390 a4 be bd 3c 9e ee 7b 3c 49 3a 9b bc a1 8b a3 3c
       0.023162194 0.015376715 -0.018948691 0.019964041
0003a0 fb 4e bf 3c b2 b8 7b 3c e7 7c ce 3c 46 9f 81 3c
       0.02335309 0.015363859 0.025206042 0.015823018
0003b0 61 e7 76 3b e7 1e 43 3c ae 39 7d bc 8a b1 9a 3c
       0.0037674534 0.011909223 -0.015455646 0.018883485
0003c0 fb 43 f3 3c d2 7e d9 3c f4 37 a9 3c 53 ae 9b 3c
       0.029695502 0.02654973 0.020656563 0.019004023
0003d0 24 8d 32 ba 75 9d 8d 3c aa cd e1 bb 8a 68 27 bc
       -0.0006811193 0.017286995 -0.006890972 -0.010217795
0003e0 ee 08 c4 bc f0 5e 98 3c fc 77 70 bc 02 e6 d4 b8
       -0.02393004 0.018599957 -0.014677044 -0.0001015179
0003f0 ba a8 8b 3c 51 2b a7 bc 4a e7 8e 3c 24 48 d5 bb
       0.017048229 -0.020406397 0.017444272 -0.006508844

bias f4 [50]
000000 d2 0c ae 3c 36 79 2d bb 49 23 f3 3c c1 6c 99 3c
       0.021246348 -0.0026469952 0.029679911 0.018728616
000010 ba 1d eb ba fb 18 72 3b a1 88 c8 3c 67 a6 fc 3b
       -0.0017937936 0.003694116 0.024479212 0.0077102664
000020 78 b6 99 3c b1 3a f5 3b 76 26 2e bc b8 b6 53 bb
       0.018763766 0.007483803 -0.010629287 -0.0032304954
000030 ba 0f 42 bc a1 5e 60 bb 08 d6 6c 3c 5b 80 32 bb
       -0.01184457 -0.003423609 0.014455326 -0.002723715
000040 c8 8d 56 bc 8f a8 53 3c 16 6d f0 3c 8e e9 9f 3c
       -0.013095327 0.0129186055 0.029348891 0.019520547
000050 c4 a6 34 3c 5f 9f 49 3b 14 64 70 bc de 7d e3 3c
       0.011026088 0.0030765159 -0.014672298 0.02776998
000060 ca 9a 50 bb 23 ac fc ba d3 e6 60 3c 53 01 18 bc
       -0.0031830543 -0.0019277375 0.013726908 -0.0092776595
000070 fa 5c 29 bb d9 b2 a3 3c b2 2e ab bb 9a 24 9c bb
       -0.0025842772 0.019982742 -0.0052240724 -0.0047651054
000080 9c 98 67 3c d7 a3 cb 3c 03 d6 42 3b a6 86 30 3b
       0.014135506 0.024858398 0.0029729612 0.0026935725
000090 ac 0c ac 3b 22 17 95 3c 71 47 95 3c 96 d2 49 bb
       0.005250534 0.018199507 0.018222542 -0.0030795685
0000a0 d7 fc ea 39 d4 36 c7 3c 63 67 b8 38 4c 59 22 3c
       0.00044820338 0.024318136 8.793061e-05 0.009908985
0000b0 59 2c 0d bb 60 8d e5 3c 4e 90 e0 ba cb bf 8e 3c
       -0.0021541326 0.028021514 -0.001713285 0.017425438
0000c0 97 b1 15 bb fd 64 21 bb
       -0.0022841447 -0.0024626844

weight f4 [50, 60, 5, 5]
000000 8e af c6 3a d4 3f 63 3c 86 98 8b 3c 90 21 f1 3b
       0.001515852 0.013870198 0.017040502 0.0073587373
000010 8b f3 50 3b fd 7f 91 bc 5b c9 64 bc e5 fc 18 3c
       0.0031883444 -0.017761225 -0.0139640225 0.0093376385
000020 92 9f 44 bb e3 37 80 3a 9f 70 bb bb 91 9f 90 3b
       -0.0030002338 0.000978228 -0.0057202126 0.004413553
000030 d8 f9 8b 3c 2d 9e d8 3b 03 73 06 bc b9 3b 57 3b
       0.017086908 0.006610653 -0.008206132 0.0032841994
000040 70 3b 83 3b 2e 81 db 3b c3 91 7d bc 5f ca b1 3a
       0.0040048882 0.006698749 -0.015476647 0.001356434
000050 a7 4d 13 bb 46 38 f9 bb 34 5d a1 ba 21 58 8e 3c
       -0.0022476704 -0.0076055853 -0.0012311102 0.017376008
000060 f8 1f 24 bc ff 4a 4f bc ff 9a 0f bc 82 65 bb 3c
       -0.010017388 -0.012652158 -0.008764981 0.022875551
000070 e6 a4 0d bc 15 b8 9b bc 8e e3 5a 3c 2c e7 3a 3b
       -0.008645272 -0.019008676 0.013359917 0.0028519137
000080 1d f4 f5 3c 06 f7 4c 3c fc 04 a4 3c 37 7c d5 3c
       0.030023629 0.012510067 0.020021908 0.026060207
000090 bb 11 c4 3c 74 b3 8c bc af aa 11 3c 92 a4 4e bb
       0.023934236 -0.017175414 0.008890792 -0.0031531197
0000a0 e1 9b cf 3c 00 6b ee 3c 41 11 1f 3c 5c 28 cb 3c
       0.025342884 0.029103756 0.0097087035 0.024799518
0000b0 31 fe 9c ba db 77 9c 3c 74 f8 55 3c c4 3c a2 3b
       -0.001197761 0.01910012 0.013059724 0.0049510915
0000c0 6c b8 ab bb 4f b5 5d bc 4a 58 a3 bc 51 3b 51 bc
       -0.0052404907 -0.013531997 -0.01993956 -0.01277049
0000d0 23 8f 97 3c 04 07 a4 bc 04 cc f7 3c 52 dd 2a 3c
       0.01850087 -0.020022877 0.03024865 0.010428743
0000e0 67 19 11 3c ef a4 fc 3c ec 8c b6 3c 76 6b a3 bc
       0.008856154 0.030840365 0.022283994 -0.019948702
0000f0 b5 73 11 bc 7a c6 47 3c f1 73 bb 3c d2 68 ee 3c
       -0.008877684 0.012193317 0.022882434 0.029102717
000100 35 8a 9d 3b 46 b5 f2 3c c3 cd 1e bc 7b a6 2f 3b
       0.0048077353 0.029627454 -0.009692612 0.002680211
000110 99 d5 19 bc 2c 14 c5 3b 8f 16 ec 3c 5d 20 9a 3b
       -0.009389305 0.0060143676 0.02881935 0.004703565
000120 6e 4c 72 bc f1 b2 44 bc d2 f8 dd bb 45 fb f6 3b
       -0.01478873 -0.012005554 -0.0067740465 0.007537278
000130 28 1e 0e 3c eb 74 a6 bc f1 d5 21 bb e2 21 af 3c
       0.008674182 -0.020319423 -0.002469417 0.021378461
000140 17 db ba 3c f2 bf 7e bb 5f 72 1e bc 06 47 4d 3c
       0.022809548 -0.0038871733 -0.009670823 0.01252914
000150 0b 60 71 3c 96 7b da 3b 40 2e 31 3c 80 0d 6c bb
       0.014732371 0.0066675646 0.0108142495 -0.0036018789
000160 70 0b 16 3c cf 55 aa bb 5a e6 c9 3c a8 89 65 bc
       0.009158 -0.0051982175 0.024645973 -0.014009871
000170 bc ac 6e 3c 3f be a8 3c a0 b3 03 3c f9 07 22 bb
       0.01456755 0.020598529 0.008038431 -0.002472399
000180 8c 19 83 3c 87 40 f1 3c 23 48 a5 bc ac d1 40 bc
       0.016003393 0.029449714 -0.020175999 -0.01176874
000190 14 0f 55 bc d3 eb 92 bb 17 de db 3c 36 60 6f bc
       -0.013004083 -0.004483679 0.0268393 -0.014610341
0001a0 de 7b 45 3b 1e 9d b8 3c ac 28 fa 3c 71 f0 98 3c
       0.0030133645 0.022535857 0.030536972 0.018669339
0001b0 cb a3 07 3a 2d d6 73 3c 61 a7 ce 3c 41 fa 64 bc
       0.00051742484 0.014882606 0.025226297 -0.013975681
0001c0 ae cc 15 bc 91 31 c4 3c 8f a7 e9 3c 75 6c b8 bb
       -0.009143038 0.023949416 0.028522281 -0.0056281635
0001d0 a1 c5 12 bc e7 e5 b8 3c 8b 18 25 3c 85 98 57 3b
       -0.008958251 0.022570563 0.010076652 0.0032897305
0001e0 4a 9f 7f 3c a2 c0 e3 bb 8a d3 d2 b9 96 17 35 3c
       0.015601942 -0.006950454 -0.0004021193 0.011052987
0001f0 49 4f 4d 3c 1f 09 34 bc 15 1f 32 3c b7 bd d9 3c
       0.01253111 -0.010988503 0.010871668 0.02657972
000200 3e 65 db 3c 37 3a a8 ba 3d 74 49 bc e2 f0 bb 3c
       0.026781674 -0.0012834732 -0.01229578 0.02294201
000210 4b 23 b0 bc eb 1c 3f 3b 54 0e fc bb db d3 12 bc
       -0.021501204 0.0029161524 -0.0076921377 -0.008961643
000220 c9 62 4c 3c 3d d7 16 bb c1 c2 ac 3c 69 4d b0 bc
       0.012474724 -0.0023016476 0.02108896 -0.021521287
000230 0d 39 bd bc 92 a7 b0 bc 30 5a 58 bb 75 6b d9 3c
       -0.023098493 -0.021564279 -0.003301274 0.026540497
000240 70 5b 94 3c 5c f2 91 3c 7d 12 88 bc b8 d0 74 3c
       0.018110007 0.017815761 -0.016610378 0.014942341
000250 62 cb 90 bb 8b 62 b8 3c c0 9b 97 3b fb 82 71 3c
       -0.0044187764 0.022507926 0.004626721 0.014740701
000260 da 05 05 bc a1 c3 0c 3c 51 93 bb 3c 2c be 27 3c
       -0.008119071 0.008591563 0.022897394 0.010238212
000270 88 42 9c 3c dc a0 68 bb 2d 70 48 3c 1c 65 86 3c
       0.019074693 -0.003549627 0.012233776 0.016405635
000280 21 5b 81 bc bf 8a 85 3c 8d 36 75 3a ad ea 8c 3c
       -0.015790524 0.01630151 0.0009354137 0.017201746
000290 03 3c 0a 3c 96 f5 a6 3b f6 ab a6 3c fe 79 6e 3c
       0.0084371595 0.005095194 0.02034567 0.014555452
0002a0 45 68 e2 3c 1a 53 46 3b 90 fe 22 3c 54 8a 86 3c
       0.02763761 0.0030261935 0.009948388 0.016423382
0002b0 6d 14 83 3c 83 6f 9c 3c 38 23 1f 3c 5f 53 3f bc
       0.01600095 0.019096142 0.009712987 -0.011677592
0002c0 db 79 7a 3b a6 43 f1 3b c8 b5 b9 39 63 6d 01 bc
       0.0038219604 0.0073628007 0.00035421387 -0.007899615
0002d0 fb 29 d6 3b 54 72 74 3c 9b 90 64 3c fe cb 92 3c
       0.006535766 0.014919836 0.013950492 0.017919537
0002e0 7d 0c 6d bb e9 e8 ef 3b 88 b9 be 3c 29 a6 54 3c
       -0.0036170774 0.007321466 0.023281828 0.012979069
0002f0 88 48 9e bb 93 9b 0d 3c 9f 9a eb 3a 83 55 4c 3c
       -0.0048304237 0.008643049 0.0017975158 0.012471559
000300 13 6e 42 3c 35 0c c8 3b 66 51 ef bb a2 12 27 3c
       0.011867064 0.006104971 -0.0073034046 0.0101973135
000310 5c 5c e7 3b 66 d4 3c 3c 69 c5 ef b9 df 38 89 bc
       0.0070605706 0.011525249 -0.00045732714 -0.016750751
000320 ee d5 d2 3c 7a a2 af bc 33 11 0e 3c c6 ff 26 bc
       0.025736775 -0.02143978 0.008671093 -0.010192817
000330 31 f7 15 bc 4c cc bd bb 58 79 6d 3a 1e 9a 8c bc
       -0.009153173 -0.0057921764 0.0009058914 -0.017163333
000340 96 97 94 bc bf 95 4b 3c 49 5f 02 bc a7 86 c6 3c
       -0.018138688 0.012425839 -0.007957288 0.02423413
000350 55 bd a4 3b 10 ac 20 bc 33 73 81 3c 24 08 40 3c
       0.005027453 -0.009806648 0.015802002 0.011720691
000360 5e fb 98 bc 40 c6 a9 ba 58 dc a6 3b 8a 8f d9 3c
       -0.018674549 -0.001295276 0.005092185 0.026557703
000370 4b a6 63 bc 57 28 ab bc 30 fb b2 3c 35 1b b0 3b
       -0.013894628 -0.020893259 0.021848291 0.005374337
000380 bc bd 61 3b e7 af 61 3c 90 f8 58 3c 2f 2f 84 3c
       0.0034445366 0.013774849 0.013242856 0.01613578
000390 7f 1b 3a bb 38 e1 d7 3c 11 98 98 bb da f6 10 bc
       -0.0028397737 0.02635251 -0.0046567996 -0.0088479165
0003a0 f8 d1 ab 3c 81 15 5b 3c b6 f2 5e bc b5 71 8c bc
       0.020974144 0.013371826 -0.0136076715 -0.017144063
0003b0 12 1c dc bb ac 13 62 bc a4 e0 05 bc 54 58 49 3c
       -0.0067172134 -0.013798635 -0.008171234 0.0122891255
0003c0 37 4c bf 3c db d3 a8 3c 51 61 b0 bb af 78 84 3c
       0.023351772 0.020608833 -0.005382695 0.016170828
0003d0 45 06 1f 3c 19 86 72 bc 02 1f 89 bb bd 81 e4 3b
       0.009706085 -0.014802479 -0.0041846046 0.006973474
0003e0 a0 fb 97 3c d0 eb 52 3b 96 48 97 bb a2 5d a8 3c
       0.018552601 0.0032184012 -0.004616807 0.02055246
0003f0 3e b2 80 3c e9 c3 80 bc 8d fc ad bc 0c d1 15 3b
       0.015709992 -0.015718417 -0.02123859 0.0022860197

bias f4 [60]
000000 4d b7 31 bc 4a 14 2a 3c 2a 76 5b 3c 82 d7 dc 3c
       -0.010846925 0.010380814 0.013394872 0.02695823
000010 3e 3d d7 3c 1e 70 b2 3c c1 7a 99 3b e0 a3 1d bc
       0.02627432 0.021781977 0.004683823 -0.00962159
000020 c0 63 a4 3c bf da d8 3b 71 da 80 3c ce c2 ae ba
       0.020067096 0.0066178734 0.015729161 -0.0013333203
000030 46 c2 5c bc 17 c9 28 bc 22 e3 81 3c 9b f9 24 3c
       -0.013474053 -0.01030185 0.015855376 0.010069276
000040 89 be 0b 3c 46 43 66 3c ed c0 3d 3c 50 47 bf ba
       0.008529314 0.014054125 0.011581642 -0.0014593396
000050 55 41 b4 bb 7c f2 ae 3c b9 c0 f6 3b 54 8f a3 3a
       -0.0055009522 0.02135586 0.0075302985 0.0012478628
000060 ef bf 0a 3c 63 65 ea 3c 79 81 86 3c a6 58 36 3c
       0.008468612 0.028612798 0.01641916 0.011129534
000070 23 bf b7 bb 75 df 92 3c 10 30 32 3b a7 10 54 3c
       -0.005607502 0.017928818 0.0027189292 0.012943423
000080 d5 e9 f9 3a d3 35 21 bb 49 1a b3 3c 68 b5 88 b3
       0.001906688 -0.0024598732 0.02186312 -6.365991e-08
000090 f5 11 35 3b de 74 f3 ba 0e e0 89 bc f5 5e 0d 3c
       0.0027629111 -0.0018574258 -0.01683047 0.008628597
0000a0 30 eb a4 3c 2c 10 85 3c 91 05 c1 3c e3 2a d4 3c
       0.020131677 0.016243063 0.023562225 0.025899356
0000b0 37 66 0c 3c e3 de 18 ba ae 11 86 3c 7e c4 46 bc
       0.008569292 -0.00058315526 0.016365852 -0.012131808
0000c0 7a 64 43 bc 1f 70 69 bb 2e fa bd 3c 8f 8c ce 3b
       -0.011925811 -0.0035619808 0.023190584 0.006303377
0000d0 09 65 31 3c f4 ed e8 bb 1a 48 1d 3a 71 bc ae 3b
       0.010827311 -0.0071084443 0.00059998187 0.0053325226
0000e0 8c 9d 06 bb f8 2b 0a 3c 3b 3b 72 bb 68 20 99 ba
       -0.0020540683 0.0084333345 -0.0036961574 -0.0011682631

weight f4 [50, 60, 5, 5]
000000 7a 67 43 ba c8 ce 13 37 28 dc 20 b9 63 10 08 3b
       -0.0007454079 8.810028e-06 -0.00015340804 0.002076172
000010 64 ec 01 38 a9 fc 27 3a 46 88 02 b9 73 3b b4 37
       3.0976153e-05 0.0006408194 -0.00012448532 2.1485355e-05
000020 a8 3b ef ba bc 62 a3 37 cc 38 d4 37 cc 66 13 bb
       -0.0018252032 1.9477091e-05 2.5298817e-05 -0.0022491692
000030 26 62 e6 3a ea 98 af 37 bb d7 86 37 27 c0 93 b9
       0.0017576858 2.0932832e-05 1.6074502e-05 -0.0002818119
000040 40 d1 84 ba e1 48 d2 37 7c e8 a8 37 69 70 85 ba
       -0.0010133162 2.5067888e-05 2.013542e-05 -0.0010180596
000050 7e 84 90 3a e1 9e 07 bb ac f9 55 39 c1 2b 35 bb
       0.0011025814 -0.0020694064 0.00020406273 -0.0027644488
000060 e5 09 4d 39 6b 14 33 bc 74 50 90 bc e0 ac 98 bc
       0.0001955401 -0.010930161 -0.017616488 -0.01863712
000070 b1 a9 da 3a b0 02 cc 3b a5 e0 70 bc ed 61 06 bc
       0.0016682652 0.0062259063 -0.014701997 -0.008202058
000080 5d 08 21 3a 17 1d d4 ba b1 44 9b 3c f4 18 1d 3c
       0.0006142909 -0.0016182986 0.018953653 0.009588469
000090 22 78 e2 bb 54 cb 93 3c f2 45 3b 3c b9 be 0c bc
       -0.0069112936 0.01804129 0.0114302505 -0.008590394
0000a0 39 78 70 3c 88 01 65 3c 1a 0b 2c 3c da 55 fd bb
       0.014677101 0.013977416 0.010500694 -0.0077311816
0000b0 0c b8 5d 3c 98 2c 45 3c a5 88 97 3b ae 92 29 3c
       0.01353265 0.012034558 0.0046244436 0.010349913
0000c0 8f 5d 35 3c 99 ef 8a 3b cb 6b 3f bc 5e 6e 2b bc
       0.011069669 0.004239988 -0.011683415 -0.010463325
0000d0 01 f3 b7 bc 46 c2 10 bb 74 5b a9 bc 39 c0 2f bc
       -0.02245474 -0.0022088452 -0.020673491 -0.010726982
0000e0 5d 84 3e bc b3 ff 8b 3c 09 b0 f1 ba 07 4a 30 bc
       -0.011628238 0.0170897 -0.0018439303 -0.010759837
0000f0 24 e2 5a bc 1e 03 85 3c 89 52 13 bc 2a 28 f0 bb
       -0.01335958 0.016236838 -0.008991846 -0.0073290067
000100 10 72 15 3b 0c c0 8a bc 3a d9 bf 3a 9d fa 44 bc
       0.0022803582 -0.016937278 0.0014636882 -0.0120226415
000110 e4 a5 84 3c 65 78 2e bc 95 d4 17 3c 3f 9c a6 bb
       0.016192384 -0.0106488215 0.009266992 -0.005084544
000120 55 7c ea 3b d8 34 e3 3a 05 8e 13 3b 68 09 9b 3b
       0.007155935 0.0017334474 0.002251507 0.004731346
000130 6f 50 dc 3a dc ed 8f 39 65 af 3c bc 6a 93 2a bb
       0.0016808639 0.00027452304 -0.011516427 -0.0026027807
000140 5d 80 53 bc ea 7c c9 bb 49 4e 92 bc 2c 7b a9 bc
       -0.012909022 -0.006148924 -0.017859595 -0.020688616
000150 94 d1 03 bb 7f 98 8a bc 81 c8 93 3c 97 b3 5e bb
       -0.0020113932 -0.016918419 0.018039944 -0.0033981556
000160 33 cd f1 39 5e ee ad 39 1e 38 66 bb 90 e5 57 3b
       0.00046119987 0.0003317473 -0.0035128663 0.0032943226
000170 7c fc ae bc ed 14 88 bc df 3e 94 bc ac 7f 28 bc
       -0.021360628 -0.01661154 -0.018096386 -0.010284346
000180 c5 cc 9e 3c bb 3b 8f 3c 50 ff d5 bb 58 7d 60 bc
       0.019384751 0.017484536 -0.0065306798 -0.013701759
000190 15 86 a6 3b 02 ee c1 3b 94 6b cc 3b dc 0b ec 3b
       0.005081902 0.0059182653 0.0062384102 0.007203562
0001a0 76 29 15 bc 1e 08 e7 bb bf d9 b2 3a 37 98 b1 ba
       -0.009104123 -0.007050528 0.0013645216 -0.0013549392
0001b0 c5 7c 8f bc 25 0b 1e 3c 07 02 a0 3c eb 62 88 3c
       -0.01751555 0.009646212 0.019532217 0.01664873
0001c0 23 17 a9 3c 1a 44 07 bb fd 3b a5 bc 2f 79 0d bc
       0.020640915 -0.0020639957 -0.020170206 -0.008634849
0001d0 0b de 3c bc 47 de ea 3b 6e 75 a5 3b 1c a3 3c 3c
       -0.011527549 0.007167611 0.005049399 0.011513498
0001e0 6f 74 67 3c 0f 71 9e 3c 8a e2 4b 3c ce 68 a2 ba
       0.014126881 0.01934102 0.012444148 -0.0012390853
0001f0 ca da b4 bc d8 81 38 b9 78 99 1c 3b cc 4b 9b 3b
       -0.022076983 -0.00017595978 0.0023895185 0.0047392603
000200 d5 a8 20 3c 7f d4 96 3b 0a 57 4e 3c 77 87 5c bc
       0.009805878 0.004602968 0.012593994 -0.013460032
000210 55 e0 f3 3a 4a 46 94 bb f9 4c 97 3b 73 3c 2a bc
       0.0018606285 -0.0045249807 0.00461733 -0.010390389
000220 b4 5d 19 3c 59 ea 1b bc da 5f 42 b9 b6 19 60 39
       0.0093607195 -0.009516322 -0.00018536989 0.00021371883
000230 dd 2c 06 3c 70 a7 31 bb 83 8c 87 bb 7e 25 ea 3b
       0.008189407 -0.0027107857 -0.0041366233 0.0071455827
000240 26 b2 a1 bb 90 d8 9f bb 1b d4 0a bc 24 a3 34 bb
       -0.004934567 -0.004878111 -0.008473421 -0.002756306
000250 13 d6 b4 bb c6 09 af 3b cf 10 88 ba af 10 87 bc
       -0.0055186837 0.0053417413 -0.0010380986 -0.016487448
000260 2c 1e f2 3b 3e a3 88 3b 34 34 2a 3c 88 40 2d 3c
       0.0073888507 0.0041698506 0.010388423 0.0105744675
000270 84 03 7c 3c 5b 32 85 bc 36 b3 80 3c 71 31 08 bc
       0.015381698 -0.016259363 0.015710454 -0.008312569
000280 a9 7a 0a 3c d4 77 cc ba 9d 6d 1c bc 82 5a 1a bc
       0.008452096 -0.0015599676 -0.009547618 -0.009420993
000290 76 45 06 bc 69 18 5c bb 0d dc 83 3c 6f c9 c7 bb
       -0.008195272 -0.0033583886 0.01609614 -0.006097011
0002a0 6c a6 01 bc 26 19 ba ba c3 1b 01 3c bb 96 50 bc
       -0.007913213 -0.0014198169 0.007880154 -0.012731249
0002b0 d3 7b 96 bc cf d2 8d 3c ab 04 5e ba a0 55 35 3b
       -0.01836959 0.017312435 -0.00084693235 0.0027669445
0002c0 22 77 d0 3a c0 38 98 3a 5a f4 6d ba 0b 25 c2 38
       0.0015904645 0.0011613593 -0.0009077244 9.257541e-05
0002d0 ab 53 46 38 b9 45 1a 39 98 61 54 38 d1 ab 0b b9
       4.72848e-05 0.00014712558 5.063563e-05 -0.0001332008
0002e0 f2 e4 ca b9 04 a1 f9 b8 61 ac a0 38 6e 60 d8 36
       -0.0003869902 -0.00011903237 7.6615026e-05 6.4485275e-06
0002f0 14 4e c9 b8 5f e4 69 3a 6a 41 9e 37 59 2b a8 ba
       -9.59897e-05 0.00089222746 1.8865529e-05 -0.0012830301
000300 b7 e7 f5 37 aa 10 95 39 d8 b6 e3 3a b1 42 fb 39
       2.9314177e-05 0.0002843191 0.0017373217 0.0004792414
000310 ff 92 e1 37 a3 79 35 3a b3 7d d1 37 7d 7a 93 3a
       2.689054e-05 0.00069227273 2.4973275e-05 0.0011251714
000320 26 3f c4 3b 68 41 ea ba 6f cc 08 3c a4 a3 c5 bb
       0.005988973 -0.0017872276 0.008349522 -0.0060314704
000330 7a 42 5f bc 36 7c 4a 3b 8e 92 97 3c 17 33 9f 3c
       -0.013626689 0.003089679 0.0185025 0.019433541
000340 33 75 c5 3b a3 6b 77 bc df 8c 30 bc fd 56 5b bc
       0.006025934 -0.015101346 -0.010775774 -0.013387439
000350 e0 69 37 bc 08 e3 78 3c ed 9f a9 bc ad d6 79 3b
       -0.011194676 0.015190847 -0.020706141 0.0038122342
000360 98 bb 2d bb 6b 85 44 3c 45 4f ac bc 32 bb 13 bc
       -0.002650952 0.0119947 -0.021033892 -0.009016799
000370 a9 61 ce bb d0 7b 64 bb 6f 0e 9e bb a0 54 24 3b
       -0.006298263 -0.0034863837 -0.004823498 0.0025074854
000380 c8 6d 1b bc 12 ae a8 3b b5 98 a3 ba 2b 90 73 3b
       -0.009486623 0.005147704 -0.0012481423 0.0037164788
000390 fb 85 99 3b c8 dd 34 3c ea ad 2c 3a ce 91 82 3c
       0.004685161 0.011039205 0.00065871945 0.015938666
0003a0 a8 4d 3d 3c 56 48 28 bc 5a d3 2b bb 07 78 6c 3c
       0.011554159 -0.0102711525 -0.0026218505 0.014432914
0003b0 ae 90 95 bb b1 d1 e5 3b 08 c4 36 bb 7e 06 84 bc
       -0.0045643663 0.0070135226 -0.002788784 -0.016116377
0003c0 e9 d4 88 bb 5e c8 4a bc 93 96 0c 3c 65 4b f0 bb
       -0.0041757715 -0.012376873 0.008580822 -0.0073332065
0003d0 28 0a f7 b9 da 5e 35 bc e6 e4 8c 3b a0 73 84 3c
       -0.00047119078 -0.011069978 0.0042997478 0.016168416
0003e0 b9 7c c3 3a 78 b5 34 3c 57 8e a7 ba 14 05 8c bb
       0.001491449 0.011029594 -0.001278351 -0.0042730663
0003f0 ef 5e a0 b9 5e c7 ab 3b 8c 9a 8d 3a 96 be 1a bb
       -0.0003058831 0.0052422723 0.0010803505 -0.0023612133

bias f4 [50]
000000 fb 44 b7 bc 32 d4 42 3c d3 e5 32 3c af de a1 3b
       -0.02237176 0.011891412 0.010919052 0.004939876
000010 49 31 a2 3c 1c 66 28 ba 57 9e cb 3c 3a f9 63 b8
       0.019798892 -0.0006423907 0.024855776 -5.4353128e-05
000020 1a 85 c3 3c 44 6b 8e 3c f2 bb 55 bc 65 11 09 bb
       0.023867179 0.017385133 -0.013045298 -0.002091491
000030 39 ee a0 3c 0f 19 f0 3c 6b eb db bb 26 fb 17 bc
       0.019644843 0.029308824 -0.0067114136 -0.009276187
000040 93 be 99 3c c3 3b 65 3c ef af 48 3c cd 4f 84 3c
       0.01876763 0.013991299 0.012248977 0.016151333
000050 0d 88 8b 3c f0 dd 45 bc c9 9b d7 ba d4 56 a9 bc
       0.017032648 -0.01207684 -0.0016449626 -0.020671286
000060 77 58 65 3c 75 fe a7 3c d2 84 15 3c e4 24 09 bc
       0.013998142 0.020507077 0.009125905 -0.008370612
000070 06 af 40 3c 3a 52 10 3a 97 c0 4a 3c 5a 60 a0 3b
       0.011760479 0.0005505417 0.012375019 0.0048942985
000080 70 4c f0 bb dd 93 cd ba 2b c3 35 3c 37 06 ab 39
       -0.007333331 -0.0015684325 0.011093895 0.00032620292
000090 d5 e2 b0 bc bb 4b d6 3c 36 2f 20 3c af 42 8d 3c
       -0.021592537 0.026159158 0.009776881 0.017243711
0000a0 9b ec 86 3c 42 71 ce 3c c3 66 9d 3b 75 ae d5 3c
       0.016470244 0.02520049 0.00480351 0.026084164
0000b0 d9 13 28 3b a7 34 36 b9 ab 3d ce bb ae 9f 8b 3c
       0.0025646596 -0.00017376487 -0.0062939725 0.017043915
0000c0 e2 b7 96 bc da ee 81 3c
       -0.018398229 0.015860964
