models/model_2.pth (torch_old, 376902 bytes, 15 tensors)

weight f4 [1, 6, 5, 5]
0	0x3c76108e	0.015018595
1	0xbd8a0526	-0.06739263
2	0x3db337d7	0.08750885
3	0xbcc5ff08	-0.02416946
4	0x3c4d047f	0.012513279
5	0xbd0266e2	-0.031836398
6	0x3c8f9a3b	0.017529598
7	0x3c807a0a	0.015683193
8	0xbd287226	-0.041124485
9	0x3d9b18d9	0.07573099
10	0xbccfd4e7	-0.025370074
11	0x3d852d11	0.06502736
12	0x3d011091	0.03150994
13	0x3d0c2f67	0.034224894
14	0xbdb18047	-0.08667045
15	0x3d3d0588	0.046147853
16	0x3b43c1c9	0.0029870144
17	0xbd726e3b	-0.059187155
18	0xba36b1bb	-0.0006969233
19	0xbc0eb72b	-0.008710663
20	0x3d92f01c	0.071747035
21	0x3dad7fdd	0.084716536
22	0x3d012e56	0.03153833
23	0x3d27e9f0	0.040994585
24	0xbcc7fc4a	-0.024412293
25	0x3ccd2ca7	0.025045706
26	0x3cde748f	0.027155189
27	0x3d02161c	0.031759366
28	0x3d8580bd	0.065186955
29	0xbce8542d	-0.02836045
30	0xbd9c7675	-0.076397814
31	0x3d0a781f	0.033805963
32	0xbd8aaffd	-0.06771848
33	0xbd9448db	-0.072404586
34	0xbce42e3e	-0.027854081
35	0x3d200513	0.03906734
36	0x3d9cf4e2	0.07663895
37	0xbbea3fd6	-0.007148723
38	0x3d0c89a7	0.034310963
39	0x3d565556	0.052327476
40	0x3c8d1ebd	0.017226571
41	0xbc925345	-0.017861972
42	0x3d51941b	0.051166635
43	0x3c8dea88	0.017323747
44	0x3d8946fe	0.06702994
45	0x3d6b5760	0.057456374
46	0x3d447497	0.04796275
47	0x3d190cde	0.037365787
48	0xbd1924a8	-0.037388474
49	0xbd3c006c	-0.04589884
50	0x3cd54014	0.026031531
51	0xbbbf5fea	-0.0058402913
52	0x3d96cf17	0.07363718
53	0x3d89ff37	0.067381315
54	0x3d675422	0.05647672
55	0x3a56c084	0.0008192139
56	0x3d953f27	0.07287436
57	0x3daab033	0.083343886
58	0x3da7a1e1	0.08185173
59	0x3c9d69c0	0.019215465
60	0xbd529433	-0.051410865
61	0xbd6a490a	-0.05719856
62	0x3d489f0c	0.048979804
63	0x3d840a40	0.064472675
64	0x3d86f900	0.06590462
65	0xbcf235c4	-0.029566653
66	0xbc08183c	-0.008306559
67	0x3d5a4b4f	0.053294476
68	0x3d56ee76	0.052473508
69	0x3d774056	0.06036409
70	0xbd99ae58	-0.075039566
71	0x3d3f07f8	0.04663846
72	0xbd52f65e	-0.051504485
73	0x3d99fd20	0.07518983
74	0x3d2f1f0e	0.042754225
75	0xbd1f2e07	-0.038862254
76	0x3da73de4	0.081661016
77	0x3d92dcc2	0.071710125
78	0xbd87f0fb	-0.0663776
79	0x3da6241c	0.08112356
80	0x3d615431	0.05501193
81	0x3d0918f7	0.033471074
82	0x3c968c8e	0.018377569
83	0x3d76d09d	0.060257543
84	0xb9baf0af	-0.00035656008
85	0x3d7ca3f4	0.061679795
86	0xbcd00465	-0.02539272
87	0x3db48263	0.08813932
88	0x3d6d3bb9	0.057918284
89	0x3b807059	0.003919643
90	0xbd55579d	-0.052085508
91	0x3d63c9c7	0.05561235
92	0xbd8713ad	-0.0659555
93	0xbd536765	-0.051612277
94	0xbd2b3842	-0.0418017
95	0xbd8f25c5	-0.06989626
96	0x3d87fd35	0.06640092
97	0x3d9d0aac	0.07668051
98	0x3d8fb024	0.07016018
99	0x3ceac080	0.028656244
100	0x3d186850	0.037208855
101	0x3d8de9f6	0.0692939
102	0xbd372bed	-0.044719625
103	0x3bfed661	0.007777021
104	0x3cab76a2	0.020930592
105	0xbd934ba0	-0.07192159
106	0x3d4c346d	0.049854685
107	0xbd1fa848	-0.038978845
108	0xbd38e8bb	-0.045143824
109	0x3da92f18	0.082609355
110	0x3d86a6db	0.06574794
111	0xbb448f53	-0.0029992654
112	0xbd0e4963	-0.034737956
113	0xbcbab89c	-0.022793107
114	0xbd1f3368	-0.038867384
115	0x3d98766b	0.074444614
116	0xbcc3f24c	-0.023919247
117	0x3da36653	0.07978501
118	0x3da72e2b	0.08163103
119	0xbabcdb14	-0.0014408552
120	0xbd2c3125	-0.042039055
121	0xbd4e6478	-0.050388783
122	0x3cd45dd0	0.02592364
123	0xbc4be914	-0.012445707
124	0x3da4b6cf	0.080426805
125	0xbd65f2fe	-0.05613994
126	0x3d2550db	0.040360313
127	0x3b4eae86	0.003153713
128	0xbd3569f3	-0.044290494
129	0xbd4dec78	-0.050274342
130	0xbcb1239e	-0.021623429
131	0xbd7aca69	-0.06122819
132	0xbd02d1f4	-0.03193851
133	0x3d5d07df	0.053962585
134	0x3d1c0f70	0.03810066
135	0x3daa7587	0.08323198
136	0xbc88463b	-0.016635051
137	0xbd55e2ab	-0.05221812
138	0xbd0a8ea6	-0.033827446
139	0xbb59bee6	-0.0033225357
140	0x3db5a4cc	0.08869323
141	0xbd5d1ea3	-0.053984296
142	0x3d4f2069	0.050568018
143	0xbced7417	-0.02898602
144	0x3dadb92f	0.084825866
145	0x3d9833ea	0.07431777
146	0x3d9b0174	0.075686365
147	0xbc7cde21	-0.015433819
148	0x3cd8607b	0.026413193
149	0x3c83dc58	0.016096279

bias f4 [6]
0	0xbd2b50c1	-0.04182506
1	0xbc649674	-0.013951886
2	0x3c91306a	0.017723281
3	0x3d50ef24	0.051009312
4	0x3cc811cf	0.024422554
5	0x3d53584e	0.051597886

weight f4 [6, 16, 5, 5]
0	0x3abdf2ca	0.0014491912
1	0x3c841ed1	0.016127976
2	0xbd0fd766	-0.03511753
3	0x3c4d3df6	0.01252698
4	0xbb0fefc8	-0.002196299
5	0x3c653dc4	0.013991777
6	0xbc3c9139	-0.011509233
7	0xba11152e	-0.0005534467
8	0xbd0b2323	-0.033969056
9	0x3d39c052	0.045349427
10	0x3cc5c8ba	0.024143565
11	0x3cdad8bf	0.02671468
12	0x3d309abe	0.043116324
13	0x3c8d5dd7	0.01725666
14	0xbc2584a8	-0.0101024285
15	0xbcd16311	-0.025559934
16	0x3c0827df	0.008310287
17	0x3c873ed0	0.016509444
18	0xbcd93a3f	-0.026517032
19	0x3d5ad692	0.053427286
20	0xbb4a3746	-0.00308557
21	0x3d5d9a1d	0.054102052
22	0xba772709	-0.0009428119
23	0xbcf11f36	-0.029433828
24	0x3b88e616	0.004177819
25	0x3c505ea9	0.012717881
26	0x3c42e94d	0.011896444
27	0x3bea3295	0.007147143
28	0xbba41ea8	-0.0050085373
29	0xbc6e195a	-0.0145324115
30	0xbcc993e6	-0.024606656
31	0x3d1a4655	0.03766473
32	0x3c381a81	0.011236788
33	0x3c95046b	0.018190583
34	0xbcade8a1	-0.02122909
35	0xbc24df25	-0.010062967
36	0xbce26281	-0.027634861
37	0x3d1098a6	0.035301827
38	0x3c03aa6c	0.008036237
39	0x3d147959	0.03624854
40	0x3c92ebab	0.01793464
41	0x3d196ffa	0.037460305
42	0xbb4ed7a9	-0.003156165
43	0xbcb32caf	-0.021871893
44	0x3d04ae51	0.032392804
45	0xbd10900f	-0.035293635
46	0x3cd9ea04	0.026600845
47	0x3d1e47bc	0.03864263
48	0x3ccb9618	0.024851844
49	0x3c92fc0e	0.017942455
50	0xbcbdd937	-0.023174865
51	0xbbc2920c	-0.0059378203
52	0x3c8e5098	0.017372414
53	0xbc0df327	-0.008663929
54	0x3ade5514	0.0016962611
55	0xbc9ed8b3	-0.01939044
56	0xbcfb3242	-0.030663613
57	0x3d384453	0.044987034
58	0x3d3273f2	0.043567605
59	0xbc9af06c	-0.01891347
60	0x3cb1933b	0.02167665
61	0xbbbe9f0b	-0.0058172992
62	0x3cb4c3a4	0.022065945
63	0xbb1c431d	-0.0023843714
64	0x3d303207	0.04301646
65	0xbba93a73	-0.0051644384
66	0xbba1d8f1	-0.0049391915
67	0x3c261952	0.010137873
68	0x3d2be0fd	0.041962612
69	0xbcf9f1cf	-0.030510811
70	0x3cff1bf3	0.031141257
71	0x3c8d84fa	0.017275322
72	0x3ceb33fb	0.02871131
73	0xbcecb2d2	-0.028893862
74	0x3c9cd2d8	0.019143507
75	0xbb46d2bf	-0.0030338017
76	0x3d08ee9c	0.03343068
77	0x3c5a38c3	0.013319197
78	0x3c40b87f	0.011762737
79	0x3d4686a9	0.048468266
80	0x3bee3aa2	0.007270173
81	0xba8da124	-0.001080547
82	0xbccc7913	-0.024960076
83	0xba48a5de	-0.00076541107
84	0x3d19120f	0.037370738
85	0x3c9ae9cf	0.018910317
86	0x3ca2dcdc	0.019880705
87	0xbcb75758	-0.022380516
88	0x3c312bdb	0.010813679
89	0xbcc8c03d	-0.024505729
90	0x3d0cb4f8	0.034352273
91	0xbcb174ff	-0.021662233
92	0x3d2b6452	0.04184372
93	0xbcf7a515	-0.030230084
94	0x3c55ae9e	0.01304212
95	0x3d058c54	0.03260453
96	0x39bac1a7	0.00035620967
97	0xbcb644ab	-0.02224954
98	0x3d0529d3	0.03251059
99	0xbca6a67c	-0.020343058
100	0x3c92eea1	0.017936053
101	0x3ca90151	0.02063051
102	0x3c689b98	0.014197253
103	0xbb0dc5a3	-0.0021632693
104	0x3d2ca3a6	0.042148255
105	0x3d1eff48	0.038817674
106	0xbcec2629	-0.02882679
107	0x3ce704d1	0.028200539
108	0xbbc626a3	-0.0060470863
109	0x3ad0e6ec	0.0015937961
110	0xbbcb7a36	-0.006209637
111	0x3ce018b1	0.027355524
112	0x3d206757	0.039161053
113	0x3d256186	0.04037621
114	0x3c39be9e	0.011336951
115	0x3c7b4730	0.015336797
116	0xbd150c0e	-0.03638845
117	0x3c553e8f	0.013015403
118	0xbc06c86c	-0.008226495
119	0xbb6363b1	-0.0034696872
120	0xbd1e3021	-0.038620118
121	0xbc1ce443	-0.009575906
122	0x3d08b3da	0.033374645
123	0xbbb562d7	-0.0055354643
124	0xbd3d3b50	-0.046199143
125	0x3cc7aa6f	0.024373261
126	0x3c8dc0e4	0.017303891
127	0x3ca026df	0.019549785
128	0xbcbd107f	-0.023079155
129	0x3b8c48d4	0.0042811427
130	0xbb4b5760	-0.0031027421
131	0x3c7ed0f3	0.015552747
132	0x3d05d392	0.032672472
133	0x3cd8dcd3	0.026472485
134	0x3bcee1a7	0.006313521
135	0xbd02b934	-0.031914905
136	0x3b40c5b8	0.0029414725
137	0xbcf85d17	-0.030317826
138	0xbd0bb217	-0.034105387
139	0xbd1266f4	-0.035742715
140	0xbc95a878	-0.018268809
141	0xbd34aa3c	-0.04410766
142	0xbc8db0b1	-0.017296167
143	0xbd22d9be	-0.039758436
144	0xbc3c9bf1	-0.011511789
145	0xbc4a4db4	-0.012347627
146	0x3ba076cf	0.0048969756
147	0xbd146451	-0.03622848
148	0xbd0bec12	-0.03416068
149	0xbb8ee8bc	-0.00436124
150	0xbd07cf88	-0.0331569
151	0xbc7a1dcd	-0.015265894
152	0x399ccb47	0.00029906092
153	0x3cc68837	0.024234874
154	0x3cd10151	0.025513323
155	0x3d4096dd	0.047018874
156	0x3cd4d459	0.025980162
157	0x3d020a16	0.0317479
158	0xbb838c21	-0.0040145074
159	0x3cc26235	0.02372847
160	0xbc4a6520	-0.012353212
161	0x3d0c5c55	0.034267742
162	0xbd106a5e	-0.03525769
163	0xbcd07d7c	-0.02545046
164	0xbd0927ca	-0.03348521
165	0x3d0f7b11	0.035029475
166	0xbc7e6865	-0.015527819
167	0xbd3a87f7	-0.045539822
168	0x3cbed2f0	0.023293942
169	0xbc2ed7c8	-0.010671563
170	0x3b8353e7	0.0040078047
171	0x3c6af016	0.0143394675
172	0x3c7f7de7	0.015593982
173	0xbd046282	-0.032320507
174	0xbca75645	-0.020426879
175	0xbcb5389a	-0.022121716
176	0xbc04c665	-0.008103942
177	0x3c13e88f	0.009027614
178	0x3aa429f1	0.0012524707
179	0xbc002860	-0.007822126
180	0xbcafa151	-0.021439226
181	0xbc6b7e88	-0.014373429
182	0xbbe6054a	-0.0070196735
183	0x3b3c7184	0.0028754184
184	0x3c09cbac	0.008410376
185	0x3d93aeaa	0.07211049
186	0x3d913352	0.07089867
187	0x3d7f4555	0.06232198
188	0x3dabba5c	0.083851546
189	0x3d5eacbd	0.054363955
190	0xbd5f2f1c	-0.054488286
191	0xbd6e13ad	-0.058124233
192	0xbd810ad6	-0.06300895
193	0xbd84bfb8	-0.0648188
194	0xbd8704c0	-0.06592703
195	0xbcf8571d	-0.030314976
196	0xbcfeecd4	-0.031118788
197	0xbd33d610	-0.043905318
198	0xbd7303e2	-0.059329875
199	0xbd4dc442	-0.050235994
200	0xbc891d89	-0.016737716
201	0xbcadb808	-0.021205917
202	0xbbc7b53a	-0.006094602
203	0xbca2fef9	-0.019896971
204	0x3a474509	0.00076015346
205	0xbb820120	-0.0039674193
206	0x3b911096	0.004427026
207	0x3c357370	0.011074886
208	0x3c7519c5	0.014959757
209	0x3c726c90	0.014796391
210	0xbbde01d9	-0.0067751226
211	0xbb24e905	-0.0025163305
212	0x3a61c36a	0.0008612188
213	0x3c48dcda	0.012259686
214	0x3c14c869	0.009080985
215	0x3d2ae3cc	0.04172115
216	0x3cf8a5f8	0.030352578
217	0x3c8d25d1	0.017229946
218	0x3d35b321	0.044360284
219	0x3d4e5cf0	0.0503816
220	0x3ce6cef0	0.028174847
221	0x3d39d5e0	0.045369983
222	0x3ce3dec0	0.027816176
223	0x3d52901a	0.051406957
224	0x3d418428	0.047245175
225	0xbd040d4c	-0.032239243
226	0xbcb705cf	-0.022341637
227	0x3d383403	0.044971477
228	0xbc471925	-0.012151991
229	0x3d1e53f7	0.038654294
230	0x3cd8345f	0.02639216
231	0xbcee3384	-0.029077299
232	0x3d431f19	0.04763708
233	0xbc7dcf81	-0.015491367
234	0x3ca28386	0.019838106
235	0xbc66bd51	-0.0140832225
236	0x3d4266db	0.047461372
237	0xbc607967	-0.01370082
238	0x3cd51284	0.026009806
239	0xbc8c3b0e	-0.017118003
240	0x3c82be0a	0.015959758
241	0x3d384e55	0.04499658
242	0xbcb01890	-0.021496087
243	0xbcf0d58d	-0.029398704
244	0x3d395285	0.045244712
245	0xbcbb91a9	-0.022896605
246	0x3c60a0f0	0.0137102455
247	0xbb3d5ac6	-0.0028893217
248	0xbcf3f599	-0.029780196
249	0x3c9edc86	0.019392263
250	0xbccf79fc	-0.025326721
251	0x3c982a1b	0.018574765
252	0xbaa6c404	-0.0012723212
253	0x3c94bbff	0.01815605
254	0xbce25dd7	-0.027632637
255	0xbc14902b	-0.009067575

bias f4 [16]
0	0x3d3f0779	0.046637986
1	0x3ca84a7c	0.02054333
2	0x3d3f6bfa	0.046733834
3	0x3d3d7eb3	0.046263408
4	0xbc9daf7f	-0.019248722
5	0xbcca16e6	-0.024669122
6	0xbc968d17	-0.018377824
7	0xbcd63903	-0.026150232
8	0xbd077b2d	-0.033076454
9	0x3d288843	0.041145574
10	0xbccc2af9	-0.024922835
11	0x3c2cc20c	0.010544311
12	0x3c381f54	0.011237938
13	0x3d22a92d	0.03971212
14	0xbd3810bf	-0.044937845
15	0x3d678caf	0.05653065

weight f4 [16, 25, 5, 5]
0	0x3d007f8d	0.031371642
1	0x3cf7f3c5	0.030267606
2	0x3cecf04f	0.028923182
3	0x3d025378	0.031817883
4	0x3d0f46b4	0.034979537
5	0x3d160ea1	0.036635045
6	0x3d0d373e	0.03447651
7	0x3d14dc12	0.036342688
8	0x3d130e8b	0.03590254
9	0x3d1c1960	0.038110137
10	0x3c123c90	0.008925572
11	0x3c3011b5	0.010746409
12	0x3c35dc6a	0.011099914
13	0x3c440a33	0.011965322
14	0x3c307fe4	0.010772679
15	0xbb979363	-0.004625724
16	0xbad6c881	-0.0016386659
17	0xb9a8cf5a	-0.00032197946
18	0xba491340	-0.000767041
19	0xbb846f51	-0.0040415903
20	0x3bde26f2	0.006779545
21	0x3c066cd2	0.008204656
22	0x3c1c2f94	0.009532828
23	0x3c07392e	0.008253379
24	0x3bc8a8c6	0.006123635
25	0xbc6f7f50	-0.014617756
26	0xbcb25926	-0.021771025
27	0xbc06d23c	-0.008228835
28	0x3d0363bf	0.032077547
29	0x3d1bf592	0.03807599
30	0x3b056672	0.0020355252
31	0xbcda5f61	-0.026656808
32	0xbcd61fae	-0.026138153
33	0x3ce84961	0.028355302
34	0xbb823f66	-0.003974843
35	0x3c33996a	0.01096187
36	0x3d0a490a	0.03376106
37	0xbc41e40f	-0.011834159
38	0xbcecc57a	-0.028902758
39	0x3d0f32f5	0.034960706
40	0xbca177b5	-0.019710401
41	0x3b180287	0.0023194866
42	0x3cdd8d0b	0.027044794
43	0x3cf5bbf0	0.029996842
44	0x3b9f620b	0.0048639826
45	0xbb84b654	-0.0040500555
46	0x3d005499	0.03133068
47	0x3b9e17f2	0.004824632
48	0xbcbe04e8	-0.023195699
49	0x3d024194	0.03180082
50	0x3c9de7aa	0.019275505
51	0x3c6e26cd	0.014535618
52	0x3c5a2f0a	0.013316879
53	0x3ce0e703	0.027453905
54	0xbc0e0272	-0.008667575
55	0xbb532f0a	-0.0032224082
56	0xbb01044f	-0.0019686406
57	0xbc075889	-0.0082608545
58	0x3c1d1f0e	0.009589924
59	0x3c3cd6b8	0.011525802
60	0x3d04c8fb	0.032418232
61	0xbb11060f	-0.0022128855
62	0xbc068dd0	-0.008212522
63	0xbbe04978	-0.0068446957
64	0x3cfd81fe	0.030945774
65	0x3b8d95ad	0.0043208213
66	0x3cde890a	0.027164955
67	0x3d1042f4	0.0352201
68	0xbbb2a131	-0.0054513444
69	0xbbca1021	-0.0061664735
70	0xbc921a40	-0.017834783
71	0x3d25bdc9	0.040464196
72	0x3d239460	0.039936423
73	0x3c82b6a5	0.015956232
74	0x3cbf548e	0.023355749
75	0x3cdd52a6	0.027016949
76	0xbc875712	-0.01652101
77	0x3d20e6b4	0.039282516
78	0x3bdac6ee	0.0066765463
79	0x3c132f7c	0.008983489
80	0xbcf99494	-0.030466355
81	0xbba06728	-0.0048951097
82	0x3d0a708e	0.033798747
83	0x3d0bbae5	0.034113783
84	0x3d04ae8d	0.032393027
85	0x3a3b11f7	0.0007136161
86	0xbcf8547c	-0.030313723
87	0x3ca8bc03	0.020597463
88	0x3c1481d0	0.009064153
89	0x3c9bd587	0.019022716
90	0x3d2b93f1	0.041889135
91	0xbcf2e2be	-0.029649135
92	0x3d0f9efc	0.03506373
93	0xbceae5cd	-0.02867403
94	0xbca96343	-0.020677214
95	0x3d0d48ad	0.034493137
96	0x3d157ae7	0.036494162
97	0x3cecc619	0.028903054
98	0xbb6c3458	-0.0036041941
99	0x3d047f28	0.03234783
100	0x3c5d70ea	0.01351569
101	0xbcbfeaff	-0.023427485
102	0xbbf22a94	-0.0073903296
103	0x3d1d5d4a	0.038419046
104	0xbbaeb958	-0.0053321533
105	0x3d004fe9	0.03132621
106	0xbc92d5fa	-0.017924298
107	0xbbb86767	-0.005627561
108	0x3cece7f2	0.028919194
109	0x3c697945	0.014250104
110	0xbba480d9	-0.0050202427
111	0x3d10bbea	0.03533546
112	0x3d11ed03	0.035626423
113	0xbc52f8c4	-0.012876693
114	0xbbc57adb	-0.0060266084
115	0x3cb3af8c	0.021934293
116	0x3d2bbb63	0.041926753
117	0x3d098f85	0.033584137
118	0xbaeb4265	-0.0017948864
119	0x3d092ac0	0.033488035
120	0xbc78a18f	-0.015175237
121	0x3b2166f8	0.0024628025
122	0x3b035586	0.002003999
123	0x3c4d0ea1	0.012515695
124	0x3d160c9c	0.03663312
125	0xbc5c1939	-0.013433748
126	0xbc2ab7d9	-0.010419809
127	0xbc152efd	-0.009105441
128	0xbc26dcb6	-0.0101844575
129	0xbc36f069	-0.011165717
130	0xbc56233d	-0.013069925
131	0xbc21c72b	-0.0098741455
132	0xbc123e4a	-0.008925984
133	0xbc31e217	-0.010857127
134	0xbc4ce954	-0.012506802
135	0xbc2dc5f3	-0.010606277
136	0xbc103819	-0.008802437
137	0xbbfc7f2d	-0.00770559
138	0xbc19455a	-0.009354914
139	0xbc49f66e	-0.01232682
140	0xbbd16732	-0.0063904757
141	0xbb9363b2	-0.0044979686
142	0xbb874062	-0.004127548
143	0xbbb7b46d	-0.005606225
144	0xbc048534	-0.008088399
145	0xbb2b898c	-0.0026174514
146	0xba54ea71	-0.00081220927
147	0xba24635d	-0.000627091
148	0xbb1ac8e4	-0.0023618275
149	0xbbab8074	-0.0052338187
150	0xbca7887a	-0.02045082
151	0x3ced2c38	0.02895175
152	0x3ca17765	0.019710252
153	0x3d117fd2	0.03552229
154	0xbca9a256	-0.02070729
155	0xbcf5b887	-0.029995216
156	0x3d019adc	0.031641826
157	0x3d0959fc	0.03353308
158	0x3bd88f1b	0.0066088564
159	0xbb8300b7	-0.003997888
160	0x3d1ec5a1	0.038762692
161	0x3d15b53b	0.036549788
162	0x3b64f47b	0.003493576
163	0xbccd8b2f	-0.025090782
164	0x3d093526	0.033497952
165	0xbac7490c	-0.0015204265
166	0x3c6ab38e	0.014325036
167	0xbc6d3fa4	-0.014480505
168	0xbba1f653	-0.004942694
169	0x3cc958c8	0.024578467
170	0x3c32805f	0.010894864
171	0x3c66df04	0.014091257
172	0xbc0d9093	-0.008640426
173	0x3b50b4c6	0.003184603
174	0x3d03ff13	0.03222568
175	0x3d0e445c	0.03473316
176	0x3cdaa2e4	0.026689
177	0x3d05fb3c	0.0327103
178	0x3d2c5f4b	0.042083066
179	0x3c2891c4	0.0102886595
180	0x3c8f4b65	0.017492006
181	0xb9d7d3b8	-0.00041165738
182	0x3c1953dc	0.009358373
183	0x3d07e226	0.033174656
184	0x3c61bcb5	0.013777901
185	0xbcf7b0d3	-0.030235684
186	0xbc496700	-0.0122926235
187	0x3c447e6f	0.011993035
188	0xbd007a2e	-0.03136652
189	0x3d0670b5	0.03282233
190	0x3ca71a91	0.02039841
191	0xbbf8cdd3	-0.0075928955
192	0x3c05589a	0.0081388
193	0xbcd9f916	-0.026608031
194	0xbc69c81f	-0.014268904
195	0xbcf21f5f	-0.029555975
196	0x3c047b1c	0.008085992
197	0x3d2196e0	0.039450526
198	0x3d1ef6b8	0.038809508
199	0x3cc29e85	0.023757229
200	0x2e5b64f4	4.98845e-11
201	0x2e54cbf7	4.8384376e-11
202	0xad5a2e3e	-1.2402133e-11
203	0x2e48c36d	4.5648308e-11
204	0x2e32fcc9	4.0697033e-11
205	0x2dc4a270	2.2354757e-11
206	0x2da0a673	1.8263812e-11
207	0x2ca9a054	4.821069e-12
208	0x2d6f5083	1.3603454e-11
209	0x2da005cb	1.8192467e-11
210	0x2e0870db	3.1023056e-11
211	0xae526521	-4.7838292e-11
212	0xafbfcbb2	-3.4887432e-10
213	0x2e2f1805	3.9811727e-11
214	0x2e0e89b5	3.240937e-11
215	0x2de5c0a1	2.611983e-11
216	0x2dec8a46	2.68915e-11
217	0xb075a9a5	-8.937156e-10
218	0x2dd30cfa	2.3993686e-11
219	0x2dee662b	2.7102839e-11
220	0xab4a72b7	-7.1924015e-13
221	0xb03041e7	-6.412208e-10
222	0x2d3f195f	1.08627265e-11
223	0x2de0f523	2.5574714e-11
224	0x2d0ead16	8.110198e-12
225	0xbbfa3634	-0.007635856
226	0xbbf72b6b	-0.0075430176
227	0xbb929311	-0.004473098
228	0xbb8e64d1	-0.0043455143
229	0xbc05c969	-0.008165696
230	0xbc4495fb	-0.011998649
231	0xbc13aa18	-0.0090127215
232	0xbc0f2e69	-0.008739092
233	0xbc0fb4ab	-0.008771102
234	0xbc4575f0	-0.012052044
235	0xbc2e8e49	-0.010654041
236	0xbbeb63b8	-0.0071835183
237	0xbbf5b048	-0.007497821
238	0xbc17b298	-0.009258889
239	0xbc1e3cbd	-0.009658036
240	0xbbc65d58	-0.006053608
241	0xbb89a66e	-0.004200748
242	0xbb82623a	-0.0039789947
243	0xbb9a5793	-0.0047101467
244	0xbc01b87b	-0.007917519
245	0xbab23264	-0.001359534
246	0xb9ce30e1	-0.000393278
247	0xba58442d	-0.0008249905
248	0xbb0c4e56	-0.0021408997
249	0xbb9ad90d	-0.0047255815
250	0x3cf16569	0.029467301
251	0x3d0f4eb0	0.03498715
252	0x3bac9d28	0.005267758
253	0x3d1dcc84	0.03852512
254	0x3d0c9119	0.034318063
255	0x3cf9afa1	0.030479254

bias f4 [25]
0	0x3cca3378	0.024682745
1	0x3c8f898b	0.01752164
2	0x3cd492ce	0.025948908
3	0x3ccb935d	0.024850542
4	0xbc34f211	-0.011044041
5	0xbdbae78c	-0.09126195
6	0x3cb23e0c	0.021758102
7	0xbbf58605	-0.007492783
8	0x30001d5e	4.660786e-10
9	0xbd69c6f5	-0.057074506
10	0x3cd68e5f	0.026190935
11	0x3d263f1a	0.040587522
12	0x3cd4182c	0.025890432
13	0x3cbf190a	0.02332737
14	0xbc65c1f1	-0.01402329
15	0x3c391170	0.011295661
16	0xbd07e7f7	-0.033180203
17	0xbdbef282	-0.093235984
18	0x3c1a6a72	0.009424793
19	0x3d219ba7	0.039455082
20	0x3d2bd701	0.04195309
21	0xbc782816	-0.015146276
22	0xbc6fe79f	-0.014642625
23	0x3b448a33	0.00299896
24	0xb495102a	-2.7765174e-07

weight f4 [25, 50, 5, 5]
0	0xbca37bf6	-0.01995657
1	0xbca2dd83	-0.019881016
2	0xbcace1ef	-0.021103827
3	0xbcb0774d	-0.021541262
4	0xbcafb8b0	-0.02145037
5	0xbcae724a	-0.021294732
6	0xbcb0f120	-0.021599352
7	0xbcb76f2a	-0.022391874
8	0xbcb70a88	-0.022343889
9	0xbcb7c1d2	-0.022431288
10	0x3c0376fe	0.008023975
11	0x3c103327	0.008801258
12	0x3c141200	0.009037495
13	0x3c135ab2	0.008993791
14	0x3c190f61	0.0093420455
15	0x3cac8269	0.021058278
16	0x3cbc5a73	0.022992348
17	0x3cbf1185	0.023323784
18	0x3cc13e31	0.023589225
19	0x3cba9431	0.022775741
20	0x3be174e3	0.006880389
21	0x3bd7a1f3	0.006580585
22	0x3bd7fdb2	0.006591522
23	0x3bda3de9	0.0066602123
24	0x3beaa2fb	0.007160542
25	0xbd184b75	-0.037181336
26	0xbd1d7f42	-0.03845144
27	0xbd1b7950	-0.03795749
28	0xbd252748	-0.040320665
29	0xbd28b361	-0.041186694
30	0xbd19c7c2	-0.03754402
31	0xbd1e0d83	-0.038587105
32	0xbd216e0c	-0.03941159
33	0xbd26a3a4	-0.040683404
34	0xbd243239	-0.04008696
35	0x3cd4eeb3	0.025992727
36	0x3cd7e475	0.026354054
37	0x3ce4ec55	0.027944723
38	0x3cd7791a	0.026302863
39	0x3cef9c80	0.02924943
40	0x3d2cac3b	0.04215644
41	0x3d34c530	0.044133365
42	0x3d2722f9	0.040804837
43	0x3d35971c	0.044333562
44	0x3d358690	0.044317782
45	0x3c65d092	0.014026778
46	0x3c406da3	0.011744889
47	0x3c46b707	0.012128598
48	0x3c3b79aa	0.011442581
49	0x3c494b2c	0.012285989
50	0xbcf1c39b	-0.029512217
51	0xbcf74427	-0.030183865
52	0xbcf47201	-0.029839518
53	0xbd051640	-0.032491922
54	0xbd060b87	-0.032725837
55	0xbd1517ce	-0.036399655
56	0xbd16b1da	-0.036790706
57	0xbd14e570	-0.03635162
58	0xbd1ef194	-0.038804606
59	0xbd1e214e	-0.03860598
60	0x3ba534cd	0.0050416947
61	0x3bc01339	0.0058616665
62	0x3bd24c07	0.0064177546
63	0x3bea050a	0.007141714
64	0x3bf83a46	0.007575306
65	0x3d1168aa	0.035500206
66	0x3d0a0ed9	0.033705566
67	0x3d0af9a3	0.03392948
68	0x3d130616	0.035894476
69	0x3d146538	0.036229342
70	0x3c65f97c	0.0140365325
71	0x3c745b61	0.014914365
72	0x3c6423ea	0.013924578
73	0x3c6143bc	0.013749059
74	0x3c6bb87a	0.014387244
75	0xbd2300e9	-0.03979579
76	0xbd216626	-0.039404057
77	0xbd2b5091	-0.04182488
78	0xbd2d77d4	-0.042350605
79	0xbd35df7c	-0.044402584
80	0xbad1246c	-0.0015956289
81	0xba83f0d1	-0.0010066276
82	0xb874f41e	-5.8401485e-05
83	0x3a847113	0.00101045
84	0x3b23a7b1	0.0024971778
85	0x3d22958e	0.039693408
86	0x3d2b1cee	0.041775636
87	0x3d368cbd	0.044567812
88	0x3d2d9bd6	0.042384945
89	0x3d347420	0.044056058
90	0x3cfd7314	0.030938663
91	0x3cfc13c6	0.030771147
92	0x3cefb91d	0.029263074
93	0x3d065973	0.03280015
94	0x3d07f924	0.033196583
95	0xbcc95d04	-0.024580486
96	0xbcd827ee	-0.026386227
97	0xbcddd6e8	-0.027080014
98	0xbcd7c2c4	-0.026337989
99	0xbce1fd6b	-0.02758666
100	0xbcdb9b90	-0.026807576
101	0xbcd96ee2	-0.02654213
102	0xbce20186	-0.027588617
103	0xbce87cf0	-0.028379887
104	0xbcf1ae06	-0.029501926
105	0xbccef8c2	-0.025265101
106	0xbcc8b812	-0.024501834
107	0xbcdb6e66	-0.02678604
108	0xbcde6e78	-0.027152285
109	0xbcda4134	-0.02664242
110	0x3c15b46e	0.009137256
111	0x3c20ce6f	0.009814843
112	0x3c3178a7	0.010831988
113	0x3c328982	0.010897042
114	0x3c47e99a	0.012201691
115	0x3d0799e8	0.03310576
116	0x3d0bd732	0.034140773
117	0x3d0aef6b	0.033919733
118	0x3d0be786	0.034156345
119	0x3d07e6d6	0.033179127
120	0x3c63cd52	0.013903933
121	0x3c617089	0.013759741
122	0x3c4d862f	0.012544199
123	0x3c51ef27	0.012813366
124	0x3c5f130c	0.013615381
125	0xa133f382	-6.096984e-19
126	0xa132a9cb	-6.0533465e-19
127	0xa13b3805	-6.3432206e-19
128	0xa1153b29	-5.056146e-19
129	0xa1a25b75	-1.1001755e-18
130	0xa0f31d70	-4.1185281e-19
131	0xa1d16a58	-1.419054e-18
132	0xa12b72bf	-5.808892e-19
133	0xa1040218	-4.472611e-19
134	0xa13365ac	-6.078212e-19
135	0xa08e00cb	-2.405626e-19
136	0xa1b45582	-1.2219908e-18
137	0xa1593135	-7.3587585e-19
138	0xa18234be	-8.823103e-19
139	0xa0d90723	-3.6765953e-19
140	0xa18c945e	-9.526041e-19
141	0xa18ddf08	-9.613568e-19
142	0xa1391f55	-6.2721906e-19
143	0xa2081c8b	-1.8446547e-18
144	0xa1149605	-5.03429e-19
145	0xa1699d8d	-7.9151987e-19
146	0xa1f810e6	-1.6809607e-18
147	0xa184f362	-9.009091e-19
148	0xa12f13a7	-5.9318316e-19
149	0xa11d93e3	-5.3389396e-19
150	0xbcc3ec11	-0.023916276
151	0xbcd0282e	-0.025409784
152	0xbcd1ebc6	-0.02562512
153	0xbcdf951f	-0.027292786
154	0xbce03e48	-0.027373448
155	0xbd0ac1c5	-0.0338762
156	0xbd04c776	-0.032416783
157	0xbd0f41bb	-0.034974795
158	0xbd0e1f93	-0.03469808
159	0xbd0a6e8e	-0.03379684
160	0x3b608903	0.0034261353
161	0x3b785112	0.0037890119
162	0x3b87ae28	0.004140634
163	0x3b900851	0.0043955226
164	0x3b946eab	0.004529794
165	0x3d0c150a	0.034199752
166	0x3d03ab39	0.032145713
167	0x3d05a446	0.032627366
168	0x3d09ac14	0.033611372
169	0x3d0addc0	0.033902884
170	0x3c9f5fed	0.01945492
171	0x3cac2b4f	0.021016745
172	0x3c9aee38	0.01891242
173	0x3c9c36b3	0.019069051
174	0x3cacf463	0.021112626
175	0xbd135c9a	-0.035976984
176	0xbd106f23	-0.03526224
177	0xbd13b39b	-0.036059957
178	0xbd1cccfb	-0.038281422
179	0xbd1bab60	-0.038005233
180	0xbd24d4b8	-0.040241927
181	0xbd298099	-0.041382406
182	0xbd1e16bc	-0.0385959
183	0xbd266a2b	-0.040628593
184	0xbd2838c8	-0.041069776
185	0x3ca02c93	0.019552505
186	0x3c9d2599	0.019182967
187	0x3cadb4d4	0.02120439
188	0x3cb692e3	0.022286838
189	0x3cb45dfe	0.022017475
190	0x3d2ad905	0.041710872
191	0x3d23344f	0.039844807
192	0x3d337dad	0.043821026
193	0x3d33adec	0.043867037
194	0x3d29fd0f	0.0415011
195	0x3c9ab770	0.018886298
196	0x3c8fa54d	0.017534876
197	0x3c80f00a	0.01573946
198	0x3c7ef9c8	0.015562482
199	0x3c8c15a6	0.017100167
200	0xbced35ba	-0.028956283
201	0xbcf1f575	-0.029535988
202	0xbcf7a2f5	-0.030229071
203	0xbcedec50	-0.029043347
204	0xbd00013f	-0.03125119
205	0xbcf148eb	-0.029453715
206	0xbcfb936f	-0.03070995
207	0xbcfdfbfd	-0.031003946
208	0xbcf55314	-0.029946841
209	0xbcf57f4c	-0.029967926
210	0x3c62c837	0.01384168
211	0x3c6a9e43	0.014319959
212	0x3c61b838	0.013776831
213	0x3c7e4036	0.015518239
214	0x3c7c6cb2	0.015406774
215	0x3d023e47	0.031797674
216	0x3cfba18c	0.03071668
217	0x3d0490d6	0.03236469
218	0x3cfcfa96	0.030881207
219	0x3cf7330d	0.03017571
220	0x3c01c388	0.007920153
221	0x3c021d5e	0.007941572
222	0x3be6f427	0.007048148
223	0x3bebcec9	0.0071962816
224	0x3c06cfde	0.00822827
225	0xbc9c9133	-0.019112205
226	0xbca51c8c	-0.020155214
227	0xbca8416b	-0.020539006
228	0xbcb10f3e	-0.021613713
229	0xbcb651d9	-0.022255825
230	0xbccadc87	-0.024763359
231	0xbcc6a94c	-0.024250649
232	0xbcd032b8	-0.02541481
233	0xbcd8cec9	-0.02646579
234	0xbcd8d5b2	-0.026469085
235	0x3bac5d18	0.005260121
236	0x3bae8c79	0.0053268042
237	0x3bbd7d61	0.0057827686
238	0x3bc7d528	0.0060984083
239	0x3bd2f973	0.006438428
240	0x3cc4af6b	0.024009427
241	0x3cbda448	0.023149624
242	0x3cc6e110	0.02427724
243	0x3ccd3e9c	0.025054269
244	0x3cc912d3	0.024545109
245	0x3c16ed31	0.009211824
246	0x3c101b70	0.008795604
247	0x3c19b48b	0.009381424
248	0x3c11f329	0.008908072
249	0x3c16a558	0.009194694
250	0xbca85818	-0.020549819
251	0xbca96d3f	-0.020681975
252	0xbcafba9d	-0.021451289
253	0xbcacdf0a	-0.021102447
254	0xbcb9530e	-0.022622611
255	0xbcb287c3	-0.021793252

bias f4 [50]
0	0x3cb2f9f3	0.0218477
1	0x3be33a91	0.006934472
2	0x3c240931	0.010011957
3	0x3c5c20fe	0.0134356
4	0x3c139de7	0.009009815
5	0xa2f5b71b	-6.6601254e-18
6	0xba8cae96	-0.0010733183
7	0x3be7c927	0.00707354
8	0xbbc84cda	-0.006112677
9	0x3b5ccb91	0.003369067
10	0x3cca9699	0.024730014
11	0x3c2e73ab	0.010647695
12	0x3be5ad43	0.00700918
13	0x3d0311d7	0.031999435
14	0xbc629c62	-0.01383123
15	0x3cc415c1	0.023936154
16	0x3cdf657f	0.027270077
17	0xa9f8f189	-1.1055312e-13
18	0x3c582f46	0.013194865
19	0x3cfc4fac	0.03079971
20	0x3c874db1	0.016516538
21	0x2b8a7504	9.837968e-13
22	0x3c62df19	0.013847136
23	0xbc74bbf1	-0.014937387
24	0xbc0109f5	-0.007875909
25	0xbc6216f4	-0.013799418
26	0xa8b01774	-1.9550096e-14
27	0x3ce6eb94	0.028188504
28	0x3bddfc05	0.006774428
29	0x3c453c2a	0.01203827
30	0x23aac075	1.8512946e-17
31	0x2424f912	3.5772802e-17
32	0xa150449e	-7.0563955e-19
33	0xa0ad1aea	-2.932515e-19
34	0xbb00d29d	-0.0019656785
35	0x3d002f33	0.031295013
36	0xbc266890	-0.010156766
37	0x3cdd4080	0.027008295
38	0x3ce06dbc	0.027396075
39	0x3b1ff90d	0.002440992
40	0x1e20f1b9	8.5203165e-21
41	0x3b9d4307	0.00479925
42	0x3c265796	0.010152718
43	0xa267b25e	-3.1400765e-18
44	0xbc89dafa	-0.016828049
45	0x3c8f414f	0.017487196
46	0xb00cf372	-5.127766e-10
47	0x1cb742bd	1.2127176e-21
48	0x3b933fbb	0.0044936812
49	0x3ca32ba1	0.019918265

weight f4 [25, 50, 5, 5]
0	0x3c214fe9	0.009845712
1	0x3c16c617	0.009202502
2	0x3c1f3702	0.009717705
3	0x3c35fd33	0.011107731
4	0x3c489425	0.012242352
5	0x3a3e3929	0.00072564423
6	0x3a17438f	0.000577026
7	0x3aadee7e	0.0013269929
8	0x3b2d8099	0.0026474355
9	0x3b6244e6	0.003452593
10	0xbbac92af	-0.0052665095
11	0xbba1919d	-0.0049306885
12	0xbb7cca1f	-0.0038572622
13	0xbb1d7360	-0.0024025068
14	0xbad80316	-0.0016480412
15	0xbb600513	-0.0034182712
16	0xbb37ef72	-0.0028066305
17	0xbabf59af	-0.0014598871
18	0x394351ef	0.00018627172
19	0x3a888c9d	0.0010417883
20	0x3be9364a	0.0071170675
21	0x3bfee34a	0.00777856
22	0x3c176699	0.00924077
23	0x3c34ede8	0.011043049
24	0x3c454524	0.01204041
25	0x3cb65ba3	0.022260493
26	0x3cb0491c	0.021519236
27	0x3cb2453e	0.021761533
28	0x3cba1c6a	0.022718627
29	0x3cbe937e	0.02326369
30	0xba2725f4	-0.00063762
31	0xba101b6c	-0.000549725
32	0x38f62d17	0.00011738593
33	0x3a8691fc	0.0010266895
34	0x3aa53dd6	0.001260693
35	0xbcb72b5e	-0.022359546
36	0xbcb646af	-0.022250501
37	0xbcb032ee	-0.02150866
38	0xbca570f4	-0.020195462
39	0xbc9dd385	-0.0192659
40	0xbc4de78b	-0.012567411
41	0xbc456895	-0.01204886
42	0xbc318aa8	-0.010836281
43	0xbc1ab97d	-0.009443638
44	0xbc0dd51f	-0.008656769
45	0x3c9e2631	0.01930532
46	0x3ca0f9ba	0.019650329
47	0x3ca9b410	0.020715743
48	0x3cb47ba6	0.022031616
49	0x3cb85881	0.02250314
50	0x3c33d826	0.010976827
51	0x3c15175f	0.00909981
52	0x3c150f43	0.009097877
53	0x3c2ea1ea	0.0106587205
54	0x3c472c85	0.01215661
55	0xbc093210	-0.008373752
56	0xbc14b44d	-0.00907619
57	0xbc0b9ba8	-0.008520998
58	0xbbedac28	-0.0072531886
59	0xbbd2a78f	-0.006428666
60	0xbce50c2c	-0.027959906
61	0xbce0e57c	-0.027453177
62	0xbcd5b9a6	-0.0260895
63	0xbcc54fbd	-0.024085874
64	0xbcb8aeab	-0.022544226
65	0xbccd2bc7	-0.025045289
66	0xbcc21b23	-0.02369458
67	0xbcb1b06b	-0.021690568
68	0xbc9c2afe	-0.019063469
69	0xbc8e2cc3	-0.017355328
70	0x3a8a73c7	0.0010563069
71	0x3b2fb02d	0.002680789
72	0x3ba6dae4	0.0050920118
73	0x3bfb9a86	0.0076783327
74	0x3c12cb23	0.008959564
75	0x3c0a8c8d	0.0084563615
76	0x3c18178c	0.009282958
77	0x3c23770f	0.009977116
78	0x3c25776d	0.010099274
79	0x3c1b54f6	0.0094807055
80	0xbcb8a1a8	-0.022538021
81	0xbcb22cfd	-0.021749968
82	0xbca92eee	-0.02065226
83	0xbca160a7	-0.019699408
84	0xbc9d5b49	-0.019208567
85	0xbcad477d	-0.021152252
86	0xbca7e740	-0.02049601
87	0xbca0f129	-0.019646244
88	0xbc93c264	-0.018037029
89	0xbc888b37	-0.016667945
90	0x3c7f9e8e	0.015601767
91	0x3c7f06ae	0.015565557
92	0x3c872bc6	0.016500365
93	0x3c949bdc	0.018140726
94	0x3ca05ebb	0.019576421
95	0x3d1c9fde	0.0382384
96	0x3d1ad073	0.03779645
97	0x3d1e410f	0.038636263
98	0x3d267b5c	0.04064499
99	0x3d2d72e4	0.042345896
100	0x3bbd5f64	0.0057791937
101	0x3ba50d74	0.005037004
102	0x3bc2ef03	0.0059489026
103	0x3c009634	0.007848311
104	0x3c15ff63	0.009155127
105	0xbc53c935	-0.012926389
106	0xbc4ebc26	-0.0126181
107	0xbc39288e	-0.011301173
108	0xbc1ceb4b	-0.009577583
109	0xbc0e4882	-0.008684279
110	0xbcc1ac08	-0.023641601
111	0xbcb9d68a	-0.022685308
112	0xbcac5e51	-0.021041067
113	0xbc9cdcf4	-0.019148327
114	0xbc947781	-0.01812339
115	0xbc914016	-0.017730754
116	0xbc873046	-0.01650251
117	0xbc6f166a	-0.014592746
118	0xbc4f109c	-0.012638237
119	0xbc40f947	-0.011778182
120	0x3b5848c5	0.0033002358
121	0x3b988891	0.004654952
122	0x3bdd86b1	0.006760441
123	0x3c106cd9	0.008815014
124	0x3c193242	0.009350361
125	0x201acc24	1.3111852e-19
126	0x1faf0256	7.411925e-20
127	0x1f47b50d	4.228965e-20
128	0x1e5f510b	1.1822281e-20
129	0x1f4348f2	4.1353195e-20
130	0x200ac122	1.1752957e-19
131	0xa289a4ed	-3.7308546e-18
132	0x1f43fbbc	4.1501086e-20
133	0x1f15ce5c	3.1722674e-20
134	0x1f4840a1	4.2405107e-20
135	0x20be62f7	3.2252741e-19
136	0x1fe1d2b8	9.563981e-20
137	0x1f3c6257	3.9891893e-20
138	0x1e6431da	1.20805286e-20
139	0x1eb7c91b	1.9459054e-20
140	0x1fc1ced7	8.208087e-20
141	0x1ea3f5b9	1.7359925e-20
142	0x9dded699	-5.89848e-21
143	0x1c4e1ccc	6.81969e-22
144	0x9c75ab9b	-8.1285495e-22
145	0x1f35e519	3.8517746e-20
146	0x23271c3e	9.059069e-18
147	0x9db19e37	-4.70151e-21
148	0x9d81dc56	-3.4373838e-21
149	0x9d34c2b0	-2.3923453e-21
150	0x3c4014e9	0.011723735
151	0x3c2378cb	0.00997753
152	0x3c2327da	0.009958232
153	0x3c3aa905	0.011392836
154	0x3c53004f	0.012878492
155	0xbbd47dec	-0.0064847376
156	0xbbe88ac5	-0.0070966207
157	0xbbdccd46	-0.0067383377
158	0xbbb8ed8e	-0.005643553
159	0xbba49305	-0.005022409
160	0xbcbba382	-0.022905115
161	0xbcb95db1	-0.022627683
162	0xbcb2be9a	-0.021819402
163	0xbca982c4	-0.020692237
164	0xbca308f7	-0.019901736
165	0xbcc1e3b4	-0.023668148
166	0xbcbc76a9	-0.0230058
167	0xbcb3f56b	-0.02196761
168	0xbca7f633	-0.02050314
169	0xbc9f812b	-0.019470772
170	0xbb0053c4	-0.0019581178
171	0xba58b415	-0.00082665804
172	0x3a3f85dd	0.0007306019
173	0x3b1577a7	0.0022806914
174	0x3b341ed7	0.0027484202
175	0x3cafde28	0.021468237
176	0x3ca947c3	0.020664101
177	0x3ca8f33f	0.020623801
178	0x3cb011db	0.02149289
179	0x3cb45c43	0.02201665
180	0x3a7539bf	0.0009354613
181	0x3a84c335	0.0010128977
182	0x3ab05157	0.0013451976
183	0x3b09f9a1	0.0021053331
184	0x3b153a30	0.0022770278
185	0xbcb160d5	-0.021652618
186	0xbcb05af8	-0.021527752
187	0xbcab563a	-0.02091514
188	0xbca3ce7f	-0.019995926
189	0xbc9d28e3	-0.019184535
190	0xbc7f471c	-0.015580919
191	0xbc774286	-0.015091544
192	0xbc634849	-0.013872215
193	0xbc53d0ac	-0.012928169
194	0xbc4be8af	-0.012445613
195	0x3c780923	0.015138897
196	0x3c80fc94	0.015745439
197	0x3c88e00f	0.016708402
198	0x3c903426	0.017602991
199	0x3c918697	0.017764373
200	0x3c1fa1ca	0.009743163
201	0x3c0c4c4e	0.008563114
202	0x3c1525a3	0.009103212
203	0x3c302d02	0.010752918
204	0x3c4094b4	0.011754204
205	0xbbe87e2d	-0.0070951195
206	0xbbef2961	-0.007298634
207	0xbbcd0dae	-0.0062577343
208	0xbb9663c4	-0.0045895297
209	0xbb7e59b1	-0.0038810784
210	0xbc8f7e22	-0.0175162
211	0xbc896193	-0.01677016
212	0xbc767302	-0.015042068
213	0xbc54c15d	-0.0129855545
214	0xbc45296a	-0.0120338
215	0xbc490bb0	-0.012270853
216	0xbc320b79	-0.010866993
217	0xbc0c39ed	-0.008558732
218	0xbbc5dfc2	-0.006038637
219	0xbba2d924	-0.004969733
220	0x3bb57a40	0.005538255
221	0x3be8264d	0.007084644
222	0x3c1fd91f	0.009756356
223	0x3c4ea8e5	0.01261351
224	0x3c62c5d6	0.013841113
225	0x3c24b911	0.010053889
226	0x3c10528c	0.008808743
227	0x3c18339d	0.009289649
228	0x3c3707b0	0.011171266
229	0x3c528b07	0.0128505295
230	0xbb1d16c3	-0.0023969866
231	0xbb418b7e	-0.0029532607
232	0xbb12cf6d	-0.0022401467
233	0xba19811f	-0.00058557274
234	0x3a012719	0.00049267855
235	0xbc26aa90	-0.010172501
236	0xbc21c899	-0.009874486
237	0xbc0ea35e	-0.008705942
238	0xbbe557e7	-0.006999004
239	0xbbcbd808	-0.0062208213
240	0xbc0c2680	-0.008554101
241	0xbbfd4587	-0.0077292356
242	0xbbc975cd	-0.006148076
243	0xbb8aa0e9	-0.0042306078
244	0xbb61b496	-0.0034439913
245	0x3b8d35a8	0.004309375
246	0x3bace12a	0.005275865
247	0x3be856da	0.0070904316
248	0x3c17690d	0.009241355
249	0x3c26b243	0.010174337
250	0x3c280ff4	0.01025771
251	0x3c1a7397	0.009426973
252	0x3c2733df	0.010205238
253	0x3c46db14	0.012137193
254	0x3c60d00c	0.013721477
255	0xbb249cf2	-0.002511796

bias f4 [25]
0	0xbd0d3ff4	-0.03448482
1	0xbca1b38c	-0.019738935
2	0x39742686	0.00023284004
3	0x3c267f1b	0.01016214
4	0xb8666a00	-5.4934993e-05
5	0x3cf3b39f	0.029748736
6	0xaab41bd2	-3.1993727e-13
7	0x3c1056f0	0.00880979
8	0xbd012074	-0.03152509
9	0xa453fb5c	-4.596624e-17
10	0x3bade60c	0.0053069647
11	0xbb5d1dab	-0.0033739607
12	0x0a0086a7	6.188301e-33
13	0x3c7e8fcd	0.015537214
14	0x3c0ff029	0.008785286
15	0x21e32b20	1.5393533e-18
16	0x3c2f7ef9	0.010711425
17	0xa50c2438	-1.2155336e-16
18	0x3af9bc01	0.0019053222
19	0xa5a65d7b	-2.8859755e-16
20	0x3c089328	0.008335866
21	0x3cb2a72a	0.021808226
22	0x2495d35d	6.497651e-17
23	0x3cb01179	0.021492707
24	0x3c1f84b7	0.0097362315

weight f4 [16, 25, 5, 5]
0	0xb441cc4e	-1.8048851e-07
1	0xac268b31	-2.3667286e-12
2	0xb419bcfa	-1.4317985e-07
3	0xabc7b8e4	-1.4191118e-12
4	0xac537de1	-3.005478e-12
5	0xb4695c62	-2.1733425e-07
6	0x2ae7be4d	4.116589e-13
7	0x2d5ecd35	1.2664804e-11
8	0xac37016e	-2.6006658e-12
9	0xb3612b19	-5.2426092e-08
10	0xabefa337	-1.7027273e-12
11	0xaac68e63	-3.5270666e-13
12	0xacae7656	-4.9585154e-12
13	0x2b50bd52	7.415918e-13
14	0xb08f770b	-1.0438453e-09
15	0xac079af6	-1.9270674e-12
16	0xb42b4e22	-1.595404e-07
17	0xb4868806	-2.5058415e-07
18	0xb4a0298e	-2.9832557e-07
19	0xb2a7afe0	-1.9521337e-08
20	0x2d4a65dc	1.1504988e-11
21	0x2a8ba6ce	2.4807104e-13
22	0x29f851fa	1.1027633e-13
23	0x2a35d976	1.6151476e-13
24	0xb39fb824	-7.4375095e-08
25	0xabf373a9	-1.7298291e-12
26	0x80004534	-2.4825e-41
27	0x2ad14b2f	3.7178027e-13
28	0x307828c8	9.027983e-10
29	0x98d3f209	-5.4786615e-24
30	0x8001d317	-1.6756e-40
31	0x85722000	-1.1384663e-35
32	0x0000c257	6.9716e-41
33	0x0723d6f4	1.2325926e-34
34	0x80b42333	-1.6543016e-38
35	0xac150519	-2.1177003e-12
36	0x800034ad	-1.8897e-41
37	0xab0e4746	-5.0547446e-13
38	0xa781f2d5	-3.606797e-15
39	0xadf6e627	-2.806917e-11
40	0x0001a239	1.5003e-40
41	0x2f5b19f2	1.9927152e-10
42	0x9414cb82	-7.512225e-27
43	0x97aa0b5d	-1.0988861e-24
44	0x09c54057	4.748653e-33
45	0x07c77886	3.001303e-34
46	0x2ffaee15	4.5643903e-10
47	0x1b32739d	1.4761172e-22
48	0x000a260c	9.32004e-40
49	0x000239d6	2.04419e-40
50	0x3ab2b1de	0.0013633331
51	0x3b39a0a2	0.0028324504
52	0xbaaef007	-0.001334668
53	0xb9c7160b	-0.0003797266
54	0xbafee682	-0.0019447359
55	0x3af2d72b	0.001852726
56	0x394d607b	0.00019586265
57	0xb94f80c7	-0.00019789032
58	0xbb1e30f4	-0.0024138065
59	0xba5cac1d	-0.0008417981
60	0x398bad03	0.0002664105
61	0xbb2dff72	-0.0026549962
62	0x39d4a6ee	0.00040560163
63	0xbac756f0	-0.0015208405
64	0xb92ecf30	-0.00016671116
65	0xbaa1f116	-0.0012355174
66	0x3aec8dfc	0.0018047686
67	0xba8b8cd3	-0.0010646827
68	0xb928353d	-0.00016041561
69	0xb9bf063e	-0.0003643501
70	0xbaeb1176	-0.0017934281
71	0xbab6f58a	-0.0013958674
72	0x3a29aed6	0.0006472891
73	0x3b24416d	0.002506341
74	0x3b2b112a	0.002610276
75	0x3c3b826e	0.011444671
76	0x3bdc4b8a	0.006722872
77	0x3c295cea	0.010337094
78	0xbc957e30	-0.018248647
79	0xbc076766	-0.008264398
80	0x3ae6da45	0.0017612657
81	0xbc4bb191	-0.012432472
82	0xbbf03414	-0.007330427
83	0x3c383786	0.011243707
84	0x3bff947b	0.0077996827
85	0xbc95703a	-0.01824199
86	0x3af0ef3a	0.0018381842
87	0x3bcfbaf6	0.006339426
88	0x3c283f0f	0.010268941
89	0x3c1721f1	0.009224401
90	0x39cda863	0.00039226105
91	0xbc703fac	-0.014663618
92	0x3c1cf163	0.009579035
93	0xbc7a6bbb	-0.015284474
94	0xbbc49a45	-0.0059998357
95	0xba23785f	-0.0006235893
96	0x3c26df4b	0.010185073
97	0xbc827145	-0.015923152
98	0xba7101a8	-0.0009193667
99	0x3c87e88f	0.016590385
100	0xb0d962e2	-1.5816932e-09
101	0xad98c8c3	-1.7369555e-11
102	0x00024901	2.0986e-40
103	0x2f926e00	2.6635405e-10
104	0xa7cef45d	-5.7441425e-15
105	0x00017a0f	1.35622e-40
106	0x00012cdf	1.07932e-40
107	0x800197e1	-1.4632e-40
108	0x80019ad3	-1.47376e-40
109	0x00019e8a	1.48709e-40
110	0x9ec2304b	-2.0560522e-20
111	0x002fe84e	4.399604e-39
112	0x80011d83	-1.02422e-40
113	0x80001984	-9.153e-42
114	0x80001a0d	-9.345e-42
115	0x83221709	-4.7633964e-37
116	0x0b98d100	5.886274e-32
117	0x8000e9dd	-8.3894e-41
118	0xae2ec41b	-3.9737196e-11
119	0xaaf80288	-4.4055406e-13
120	0x8daa07ea	-1.0478964e-30
121	0x00006e89	3.9653e-41
122	0x26b74ca3	1.2718948e-15
123	0xafe55217	-4.1713186e-10
124	0x800086fa	-4.842e-41
125	0x3c8948b5	0.016758302
126	0x3ca2b09a	0.0198596
127	0xbc52ff13	-0.012878197
128	0xbc78c103	-0.015182736
129	0x3b3eca59	0.0029112308
130	0x3b8209c3	0.003968449
131	0xbaed913a	-0.0018124946
132	0x3ae9ca5f	0.00178368
133	0xbc54a56b	-0.012978892
134	0x3c901ec3	0.017592793
135	0x3afb409c	0.0019169035
136	0x3a29e828	0.00064814324
137	0xbc7f3e03	-0.01557875
138	0x3b119bc1	0.002221808
139	0xbcb55af6	-0.0221381
140	0xbcbe8170	-0.02325508
141	0xbc824948	-0.015904084
142	0x3c14b063	0.009075257
143	0xba185b62	-0.0005811957
144	0xbb5a246f	-0.0033285876
145	0xbbc859ff	-0.006114244
146	0x3bf20281	0.0073855524
147	0xbadcb8e1	-0.0016839766
148	0x3cae9e7b	0.021315804
149	0x3c383a2b	0.011244337
150	0x228650e1	3.6406407e-18
151	0x9de6f6af	-6.1135558e-21
152	0x29799f18	5.54271e-14
153	0x1b31e3eb	1.4714741e-22
154	0x2ef8dc0f	1.13168246e-10
155	0x2f1d8f85	1.4330055e-10
156	0x9c947638	-9.824377e-22
157	0x1bf22aa5	4.00631e-22
158	0x9e76b4c6	-1.3060515e-20
159	0xad2186fc	-9.181763e-12
160	0x2e947935	6.7517915e-11
161	0x2e29802d	3.8539994e-11
162	0x9c809c3c	-8.510715e-22
163	0xa26844d9	-3.147831e-18
164	0x2c0e8f07	2.025881e-12
165	0x9c891446	-9.07114e-22
166	0xa820a25d	-8.916991e-15
167	0x9c7e9b74	-8.424247e-22
168	0x9aedfed5	-9.8432606e-23
169	0x9c81fa06	-8.601133e-22
170	0x30243136	5.9732785e-10
171	0x2bc9b41f	1.4331903e-12
172	0x2e099e15	3.12906e-11
173	0xa982fb04	-5.816704e-14
174	0xac5eeff1	-3.1681292e-12
175	0x3c0b1e37	0.0084910905
176	0x3b134445	0.0022471112
177	0x3c3678d3	0.011137205
178	0xbc8e660c	-0.017382644
179	0x3b7a4c14	0.0038192319
180	0xbc83d8b7	-0.016094549
181	0x3af72bf3	0.0018857702
182	0xbc8cb9a4	-0.017178364
183	0x3c4bfe55	0.012450774
184	0x3be89249	0.0070975167
185	0x3c24f319	0.010067725
186	0xb7af7a7b	-2.091866e-05
187	0x3c46f85e	0.012144176
188	0xbbc167fe	-0.0059022894
189	0xbc369c24	-0.011145625
190	0x3c089e6b	0.008338551
191	0x3bc40326	0.0059818206
192	0x3b67dff0	0.003538128
193	0x3bdbd8cf	0.006709195
194	0xbc044ed6	-0.008075437
195	0xbbafce34	-0.0053651575
196	0xbbdef8d6	-0.006804566
197	0xbc2a539e	-0.010395912
198	0xbc4994fb	-0.012303586
199	0xbc35edff	-0.011104106
200	0x29c616d1	8.7969244e-14
201	0xb1a0a8f7	-4.675822e-09
202	0x2b758f35	8.7240225e-13
203	0xa85bf5a0	-1.22102036e-14
204	0xabdfeead	-1.5911349e-12
205	0xab84342a	-9.393643e-13
206	0x2a2b2fd9	1.5204451e-13
207	0xab953292	-1.0601123e-12
208	0x2a5bdc73	1.9527591e-13
209	0xb4af5591	-3.2658548e-07
210	0xb3d2f0a9	-9.822663e-08
211	0x2d224738	9.224448e-12
212	0x2d5eeec3	1.2672255e-11
213	0xaa723918	-2.1513726e-13
214	0xaac6a6b7	-3.5287547e-13
215	0x2a29f076	1.5093642e-13
216	0x2b5d1d1d	7.8555375e-13
217	0xac83c181	-3.744727e-12
218	0xb4ab2bbf	-3.1883062e-07
219	0xaf11f348	-1.3274104e-10
220	0xb4a3d790	-3.0517958e-07
221	0xb16e7aa8	-3.470328e-09
222	0xb2cd0140	-2.386571e-08
223	0xb4abf25b	-3.202757e-07
224	0x2d105e61	8.206409e-12
225	0x2811e8cc	8.099597e-15
226	0x9a5905ca	-4.4879225e-23
227	0xa6b95012	-1.2858657e-15
228	0x19a69901	1.7225795e-23
229	0x1981225e	1.3352168e-23
230	0xac04d910	-1.8878822e-12
231	0xa58c7a0d	-2.4368833e-16
232	0x9a8cf8a0	-5.830432e-23
233	0x19f979d3	2.5795201e-23
234	0x19b8e315	1.9116872e-23
235	0x1a314db0	3.6665498e-23
236	0x1a852f83	5.508427e-23
237	0x2029cd12	1.4382709e-19
238	0x99ab1225	-1.7688314e-23
239	0x9a7b4fa6	-5.1969923e-23
240	0x1a44716f	4.062348e-23
241	0xaca40ae5	-4.66237e-12
242	0x9716178e	-4.8497344e-25
243	0x9a40a9c4	-3.9841805e-23
244	0x28a2a2c0	1.8056195e-14
245	0x198a440c	1.429635e-23
246	0x199015f5	1.489812e-23
247	0x2ef8927c	1.1303755e-10
248	0x99fb1d31	-2.5964582e-23
249	0x98ddb830	-5.7313143e-24
250	0xbc2b3a85	-0.010450964
251	0x3bab9869	0.0052366746
252	0xbbd33f90	-0.006446786
253	0x3b809d52	0.003925004
254	0xbafb7f01	-0.001918763
255	0xbb966516	-0.004589687

bias f4 [16]
0	0x3ceb602b	0.02873238
1	0x3b8a066d	0.004212192
2	0x3b1fa0eb	0.002435739
3	0xb0544ed7	-7.723719e-10
4	0xbd158e13	-0.036512446
5	0x3d172915	0.036904413
6	0xbd70e9ce	-0.058816724
7	0x3c9f6c69	0.019460874
8	0xbbc1da2a	-0.0059158998
9	0xbc7c1487	-0.0153857535
10	0x3d8a248f	0.06745254
11	0x3c5d5621	0.013509304
12	0xbc3bf25d	-0.011471358
13	0x3cac060b	0.020998975
14	0x3cce33ae	0.025171127
15	0x3c0936d5	0.008374889

weight f4 [6, 16, 5, 5]
0	0xb411a5bd	-1.3564473e-07
1	0xa8178fef	-8.4133945e-15
2	0x2d026bef	7.4136105e-12
3	0xa1463e96	-6.716784e-19
4	0x240526dd	2.8872696e-17
5	0xada4dcde	-1.8742726e-11
6	0x000092cc	5.2661e-41
7	0x04b1a2c4	4.1761977e-36
8	0xa0df37ad	-3.7814513e-19
9	0x1f3508d5	3.8335547e-20
10	0x0000f92d	8.9387e-41
11	0x80002be0	-1.574e-41
12	0x337e1f06	5.91672e-08
13	0x277fdd3d	3.5508292e-15
14	0xa2a3db43	-4.441339e-18
15	0x0001cae4	1.64619e-40
16	0x80025028	-2.12426e-40
17	0x324bdfff	1.1867086e-08
18	0x1e6e2caf	1.26088554e-20
19	0x21a3c32c	1.1096971e-18
20	0xa23ed6bb	-2.5863479e-18
21	0x20c18af8	3.2787434e-19
22	0x34d9ef78	4.0593636e-07
23	0x8001b269	-1.55837e-40
24	0x21de8beb	1.5080341e-18
25	0x238561de	1.4461337e-17
26	0xaf79a38d	-2.2704523e-10
27	0xa64b0444	-7.0435554e-16
28	0xa5ab0b21	-2.9671313e-16
29	0x25280183	1.457219e-16
30	0xaf85068a	-2.4197205e-10
31	0xade1631e	-2.5623555e-11
32	0xb2a2966a	-1.8927683e-08
33	0x331a6bc1	3.595392e-08
34	0xb14d7c4d	-2.9902083e-09
35	0xa72ed838	-2.4264563e-15
36	0x33a2a29e	7.573293e-08
37	0xa59a2454	-2.6739358e-16
38	0xab81c9ad	-9.221978e-13
39	0xa5b98cd2	-3.2187808e-16
40	0xaf9fe7d5	-2.9086658e-10
41	0xad2dc2dc	-9.877179e-12
42	0xa6b1965e	-1.2322599e-15
43	0xa64ef068	-7.179642e-16
44	0x33256a6a	3.851384e-08
45	0xb4795200	-2.3219764e-07
46	0xa733e037	-2.4962787e-15
47	0x33e2b32b	1.05565356e-07
48	0xa68c6b44	-9.743526e-16
49	0xac8fb7f7	-4.0847286e-12
50	0xac4cdba3	-2.9112066e-12
51	0x26cd786f	1.4257376e-15
52	0xafad67ec	-3.1542358e-10
53	0xa5a27d0d	-2.8187258e-16
54	0x32135454	8.5757e-09
55	0x277281c3	3.365459e-15
56	0xae8a5294	-6.290182e-11
57	0xa6924fd1	-1.0152419e-15
58	0xaa7efccc	-2.2647438e-13
59	0xb314a8c2	-3.461242e-08
60	0x26ef6710	1.6611892e-15
61	0xa669fb38	-8.117858e-16
62	0xb0e40a53	-1.6592118e-09
63	0xabc2b32a	-1.3834257e-12
64	0x2673942e	8.450838e-16
65	0xa6b79367	-1.2738129e-15
66	0x27085f39	1.8925412e-15
67	0xa79617ef	-4.1659312e-15
68	0xaf0d2913	-1.2838468e-10
69	0xa6953fb0	-1.0356214e-15
70	0xa78ca771	-3.9039346e-15
71	0x25c5db2a	3.4322564e-16
72	0xaee74d6c	-1.0518417e-10
73	0xa6ce3455	-1.4308306e-15
74	0xb218bc86	-8.89043e-09
75	0xaae06881	-3.9862907e-13
76	0xa6021ca3	-4.514162e-16
77	0x9aad362e	-7.1638655e-23
78	0x97ec9ce6	-1.5290749e-24
79	0x82d9f4d3	-3.2025806e-37
80	0x269968fe	1.0644966e-15
81	0x994950e1	-1.040779e-23
82	0x976e90f6	-7.7084914e-25
83	0x033344ca	5.268234e-37
84	0x93e8fe56	-5.881583e-27
85	0x0267e3e4	1.7036601e-37
86	0x9a80b7b4	-5.323635e-23
87	0xb1052ad5	-1.9378394e-09
88	0x84ccca12	-4.814574e-36
89	0x83c69985	-1.167264e-36
90	0x33dbe55e	1.0239704e-07
91	0x339c2e20	7.272706e-08
92	0xa2d53735	-5.779222e-18
93	0x05196fac	7.214536e-36
94	0x9b3068c8	-1.4592235e-22
95	0xae764eb9	-5.6003844e-11
96	0x2f916d05	2.645281e-10
97	0x27a4d63a	4.575141e-15
98	0xb4310b01	-1.6488413e-07
99	0x04e486be	5.3726284e-36
100	0x2c279e1a	2.3819891e-12
101	0x312b6d4e	2.4945908e-09
102	0x2d1bf4a9	8.865055e-12
103	0xa15c15bf	-7.456768e-19
104	0xb388586a	-6.349076e-08
105	0x9e4e5aaa	-1.0924298e-20
106	0x0c9ab2a1	2.3834965e-31
107	0x0b769f00	4.7497495e-32
108	0x2082126f	2.2035055e-19
109	0xa1602483	-7.5942475e-19
110	0x348f1646	2.6652032e-07
111	0x97150be9	-4.815953e-25
112	0x2a7552f7	2.1789155e-13
113	0x20f6cb28	4.1808459e-19
114	0x333ba9da	4.369381e-08
115	0x8ca56b29	-2.548677e-31
116	0x8ccf812b	-3.197114e-31
117	0x8ba020b7	-6.167898e-32
118	0x9f309775	-3.7394732e-20
119	0xae2a919b	-3.878285e-11
120	0x339421df	6.897948e-08
121	0x1b134e37	1.2184828e-22
122	0xab8ed345	-1.0148346e-12
123	0x2a0d378a	1.2542585e-13
124	0x119b4b9a	2.450128e-28
125	0xaf9addcb	-2.817003e-10
126	0xb1ec86b6	-6.883819e-09
127	0x26c58996	1.3706914e-15
128	0xa638442a	-6.3930203e-16
129	0xa6116ad3	-5.0451755e-16
130	0xa784cc9c	-3.6859198e-15
131	0xb217e3b1	-8.841128e-09
132	0x2629f312	5.8963075e-16
133	0x2632e46d	6.206573e-16
134	0xa64cd15c	-7.1060453e-16
135	0xb47d63ea	-2.359881e-07
136	0x25d45712	3.683514e-16
137	0xace6773a	-6.55023e-12
138	0xa60c4747	-4.8668856e-16
139	0x27a80621	4.663601e-15
140	0x34526765	1.9595389e-07
141	0xa6b48b3d	-1.252775e-15
142	0x2633c711	6.2372886e-16
143	0xa603e0e8	-4.575456e-16
144	0xaeb83e9a	-8.3784715e-11
145	0xb0b8e068	-1.3451542e-09
146	0xb1b91be4	-5.3873794e-09
147	0xadd13be5	-2.3787148e-11
148	0xa6c007b2	-1.3324762e-15
149	0xac608ca2	-3.1910381e-12
150	0x28b8ca13	2.051574e-14
151	0xa32d1dc7	-9.384654e-18
152	0xabf52f9a	-1.7421509e-12
153	0xaec08cba	-8.756147e-11
154	0xb1ed0704	-6.8984054e-09
155	0x3296b016	1.7542373e-08
156	0xac0d5d64	-2.0089147e-12
157	0xaa8c16a1	-2.4884698e-13
158	0x251b5707	1.3473593e-16
159	0x33f2b141	1.13012455e-07
160	0x30d75301	1.56669e-09
161	0x8b1b9b34	-2.9968676e-32
162	0x22f7aa32	6.7129685e-18
163	0xacc7b27f	-5.6757372e-12
164	0xb0260850	-6.040226e-10
165	0x8e09aced	-1.6969814e-30
166	0x31c8281b	5.8253256e-09
167	0x0912aafa	1.7654504e-33
168	0xa402b15c	-2.8339486e-17
169	0x249158fa	6.303446e-17
170	0x8f34bdcc	-8.911239e-30
171	0x32af4422	2.0403665e-08
172	0x0d327420	5.4990265e-31
173	0x22c5d948	5.3627012e-18
174	0x2343feac	1.06249e-17
175	0x32cc8be0	2.3812333e-08
176	0xac075b92	-1.9235486e-12
177	0xa6ff60b7	-1.7720394e-15
178	0xb4c85885	-3.731731e-07
179	0x25d6708a	3.7199342e-16
180	0x26edf3ec	1.6511294e-15
181	0x271eab5e	2.2019803e-15
182	0x2597106e	2.6205458e-16
183	0xac33b807	-2.5539586e-12
184	0xa52ebce3	-1.5156092e-16
185	0x27a1536a	4.4776914e-15
186	0x277645db	3.4177227e-15
187	0xb41c2552	-1.4542209e-07
188	0xabccded2	-1.4556917e-12
189	0xabd812b7	-1.5352918e-12
190	0xa7c20f45	-5.386237e-15
191	0xb100560e	-1.8675368e-09
192	0x266356c7	7.887405e-16
193	0x26f17663	1.6754823e-15
194	0xb458c572	-2.0188398e-07
195	0xa7a82a8d	-4.66755e-15
196	0x273657e3	2.5305217e-15
197	0x33fb3051	1.1696887e-07
198	0xb48caf3b	-2.620453e-07
199	0x25a045c3	2.7802848e-16
200	0xaeb048a4	-8.016457e-11
201	0xa58251cc	-2.2606833e-16
202	0xb2d02985	-2.4233268e-08
203	0xb0549e52	-7.735014e-10
204	0xb38a6975	-6.445308e-08
205	0x2708736a	1.8936358e-15
206	0xac081928	-1.9340727e-12
207	0x260f0a08	4.9626686e-16
208	0xb244b380	-1.1449515e-08
209	0xb48d2f41	-2.6297678e-07
210	0x26868150	9.333168e-16
211	0x346a74f0	2.183549e-07
212	0xa6678646	-8.03262e-16
213	0xa5b5f178	-3.156212e-16
214	0xae55bcf2	-4.859841e-11
215	0x2e6af425	5.3422284e-11
216	0xaca35fc1	-4.6433695e-12
217	0x267fe320	8.877871e-16
218	0xa54a45a6	-1.7544305e-16
219	0xa5c710cc	-3.453238e-16
220	0x3499b9f9	2.8633784e-07
221	0xabeaff70	-1.6697598e-12
222	0x26768b1c	8.5536923e-16
223	0xb1a90e14	-4.920148e-09
224	0x26477f66	6.921465e-16
225	0x00019c2e	1.47862e-40
226	0x307a5ad2	9.1078534e-10
227	0x800133c6	-1.10408e-40
228	0x8000dce2	-7.9238e-41
229	0x0000d509	7.6423e-41
230	0x14b00d31	1.7776662e-26
231	0x8001fa33	-1.8159e-40
232	0x173054cd	5.69757e-25
233	0xb3a0a9fb	-7.4815e-08
234	0x8000e26d	-8.1226e-41
235	0xb4c8821b	-3.7347567e-07
236	0xa9989682	-6.776265e-14
237	0xa6c4efeb	-1.3665262e-15
238	0xa8931511	-1.6329415e-14
239	0x338e28b2	6.619793e-08
240	0xab19da30	-5.4659315e-13
241	0xab055ef4	-4.7382866e-13
242	0x297ccaad	5.6131034e-14
243	0x8ad88c6e	-2.0852867e-32
244	0xa7554fa7	-2.9602868e-15
245	0x8001fee5	-1.83274e-40
246	0xb496d767	-2.8096403e-07
247	0x308312ab	9.53681e-10
248	0x8000da4e	-7.8313e-41
249	0x00010ce2	9.6457e-41
250	0x27d3333d	5.8619817e-15
251	0x32bb5735	2.1809322e-08
252	0xb4ee1b2d	-4.4350728e-07
253	0xada3b9ad	-1.8613411e-11
254	0xaa9e1234	-2.807907e-13
255	0xb3719b5a	-5.6253477e-08
